models/mlp_classifier_after_encoder_weights_part2.pth (torch, 706402 bytes, 14 tensors)

fc1.weight f4 [800, 10]
0.119900696 0.05612973 0.30527335 -0.16607009 0.0018173365 0.19316193 0.15716983 -0.4316695
0.107804954 -0.26093912 0.14141673 0.17454246 -0.39432457 -0.2238546 -0.2803306 0.41892597
0.1252084 0.010393079 -0.069572754 -0.2134391 -0.14589222 -0.042711835 -0.10533025 -0.07805273
0.122878835 -0.71905416 -0.17891243 -0.015841542 0.15638341 -0.05718218 -0.34980357 -0.1861787
-0.2820536 -0.106574886 -0.20706935 0.2934622 0.024005858 0.21726325 -0.30060622 -0.22748698
0.23885384 0.21115007 0.013516682 -0.1485964 -0.10109666 0.36617085 -0.1648274 0.29732823
-0.338585 0.04566099 -0.008209037 0.16754842 0.1462808 0.47903588 -0.06444139 -0.14905533
-0.027929885 -0.040972162 -0.35646713 -0.29379365 -0.21216427 -0.1961446 -0.37258518 -0.11782729
-0.13048227 -0.09626615 0.0018677302 0.34418863 -0.13238065 -0.311595 0.2116595 -0.04686111
0.0037992792 -0.31277296 -0.15616918 -0.3186882 -0.3935148 -0.14964503 -0.14820185 0.12976456
0.011060626 -0.4354945 -0.024325348 -0.13462743 0.11194777 0.30741635 -0.17370321 0.0013423275
0.009021687 0.2981542 -0.16029619 0.242511 -0.35316703 0.47200334 0.032095294 0.2597416
0.18850437 -0.21689631 -0.09344539 0.14438318 -0.15108277 -0.043646872 -0.18047793 -0.24777488
-0.31018186 -0.088474974 -0.072994575 0.06728748 -0.123517066 -0.5170539 0.2109784 -0.43474764
-0.1998554 0.0155235175 0.012293659 -0.1688891 0.025724938 0.23402862 0.28866827 0.20753242
-0.03966997 0.41874918 0.012653238 0.27786073 0.09921683 -0.1860388 -0.1412806 0.17493719
-0.19579268 -0.12017963 -0.01940869 0.09928199 -0.22910655 0.03641541 -0.002306156 -0.06972891
0.026508085 0.021353312 0.15402383 -0.5442051 -0.09953106 0.23659098 0.045047536 -0.09500777
-0.05010835 -0.32100865 0.06989393 0.3753334 0.08263537 -0.32072818 -0.050589826 -0.07659698
0.1653357 -0.15190001 0.0071344436 -0.046631742 0.03109076 -0.52500606 -0.027957428 -0.40282345
0.17130671 -0.40878707 -0.3485727 0.06731419 -0.06622966 0.23884971 0.1802558 -0.048503064
0.14982916 0.2343188 0.108751066 0.36287266 0.05211206 -0.2932967 -0.39858747 0.030622033
0.05793239 0.21514197 -0.21221592 0.1276148 0.28785247 0.21644302 0.12601998 -0.07864046
0.46775898 0.1603868 0.047257062 0.2371803 0.046066754 0.08214069 -0.014943438 0.2065582
-0.14842907 0.3309465 0.05970827 0.2915997 -0.34057352 0.24120057 0.12782405 0.0023207348
0.10122138 -0.07263078 -0.15392856 -0.2074906 0.16609846 -0.42514798 -0.29152462 -0.065561846
0.21592227 0.16391514 -0.19561405 -0.07278344 0.0070204516 0.0128533235 -0.2602277 -0.37691486
-0.20148253 0.3055363 -0.31028768 0.2305518 0.053646076 0.3007762 -0.32149845 0.10638672
-0.08171115 0.022898799 -0.2408673 0.18056326 -0.21258573 -0.26778525 -0.0027725254 -0.12269669
-0.027052892 0.25415868 0.2934868 0.34149772 0.24074608 0.1445372 0.3305944 0.36210337
0.04999954 -0.14660117 -0.022241754 -0.12031843 -0.04410689 0.27189374 -0.23065704 0.045870412
-0.19528446 0.3877523 0.21307446 0.2854278 -0.29968783 -0.04288792 -0.12157563 -0.33645704
00000000: 7f8e f53d 4ae8 653d ca4c 9c3e 470e 2abe
00000010: b233 ee3a 3ecc 453e 21f1 203e c903 ddbe
00000020: d8c8 dc3d d099 85be 8ccf 103e 42bb 323e
00000030: e9e4 c9be 243a 65be 7e87 8fbe 777d d63e
00000040: a136 003e bc47 2a3c 297c 8ebd c88f 5abe
00000050: c564 15be 9bf2 2ebd 63b7 d7bd 1cda 9fbd
00000060: e6a7 fb3d ef13 38bf d234 37be 1fc6 81bc
00000070: f922 203e dd37 6abd 7419 b3be a1a5 3ebe
00000080: 5469 90be ef43 dabd fd09 54be ad40 963e
00000090: efa7 c43c 427a 5e3e 0fe9 99be 59f2 68be
000000a0: 1a96 743e b937 583e 1375 5d3c a829 18be
000000b0: c40b cfbd bf7a bb3e 84c8 28be 683b 983e
000000c0: 035b adbe 0507 3b3d 327f 06bc d091 2b3e
000000d0: a2ca 153e 3144 f53e d9f9 83bd f6a1 18be
000000e0: 37cd e4bc 6dd2 27bd dc82 b6be 1f6c 96be
000000f0: 9741 59be 21da 48be 7cc3 bebe 6f4f f1bd
00000100: 259d 05be 3027 c5bd a0ce f43a 7e39 b03e
00000110: cb8e 07be 6189 9fbe 45bd 583e 6ff1 3fbd
00000120: 54fd 783b c723 a0be d0ea 1fbe 1a2b a3be
00000130: c67a c9be 8c3c 19be 3ac2 17be 00e1 043e
00000140: a137 353c 23f9 debe f445 c7bc c6db 09be
00000150: df44 e53d ad65 9d3e 41df 31be 09f1 af3a
00000160: b3cf 133c aba7 983e af24 24be ce54 783e
00000170: 4fd2 b4be 6caa f13e 5b76 033d dafc 843e
00000180: 4a07 413e 111a 5ebe 4c60 bfbd 2fd9 133e
00000190: 71b5 1abe 10c7 32bd 35cf 38be b3b8 7dbe
000001a0: 28d0 9ebe 5e32 b5bd 2e7e 95bd 05ce 893d
000001b0: 84f6 fcbd a55d 04bf b90a 583e 3e97 debe
000001c0: e5a6 4cbe 5a56 7e3c 586b 493c 44f1 2cbe
000001d0: 1bbd d23c 33a5 6f3e 54cc 933e 6183 543e
000001e0: fa7c 22bd 4b66 d63e 874f 4f3c c343 8e3e
000001f0: 3232 cb3d f580 3ebe ddab 10be bc22 333e
00000200: e07d 48be bd20 f6bd f9fe 9ebc 5b54 cb3d
00000210: e89a 6abe 5328 153d e122 17bb 08ce 8ebd
00000220: 7c27 d93c 24ed ae3c 6cb8 1d3e 0751 0bbf
00000230: f1d6 cbbd e844 723e c483 383d 6f93 c2bd
00000240: 6a3e 4dbd 3f5b a4be 8c24 8f3d b32b c03e
00000250: bc3c a93d 7c36 a4be 4737 4fbd e1de 9cbd
00000260: c34d 293e ad8b 1bbe 0dc8 e93b ed00 3fbd
00000270: 0db2 fe3c cc66 06bf fa06 e5bc e03e cebe
00000280: 076b 2f3e 8a4c d1be 1f78 b2be 06dc 893d
00000290: 6aa3 87bd 0595 743e fa94 383e 26ab 46bd
000002a0: d16c 193e 44f1 6f3e e1b8 de3d 72ca b93e
000002b0: 7573 553d fc2a 96be a813 ccbe 0fdb fa3c
000002c0: 844a 6d3d 2d4e 5c3e 214f 59be 74ad 023e
000002d0: 6661 933e 3da3 5d3e 620b 013e 400e a1bd
000002e0: 1b7e ef3e 703c 243e 9f90 413d 64df 723e
000002f0: 7eb0 3c3d 6139 a83d 52d5 74bc fe83 533e
00000300: cafd 17be d271 a93e a990 743d 8e4c 953e
00000310: a75f aebe 48fd 763e 4fe4 023e 7817 183b
00000320: 284d cf3d 72bf 94bd 739f 1dbe 6a78 54be
00000330: b715 2a3e ffac d9be b742 95be 4a45 86bd
00000340: ba1a 5d3e 5fd9 273e 0d4f 48be 7c0f 95bd
00000350: d10b e63b bf96 523c 913c 85be fcfa c0be
00000360: 7051 4ebe 416f 9c3e 07de 9ebe c515 6c3e
00000370: fdbb 5b3d 57ff 993e 729b a4be 48e1 d93d
00000380: 2d58 a7bd 4396 bb3c eba5 76be 93e5 383e
00000390: 13b0 59be 261b 89be 42b3 35bb 6748 fbbd
000003a0: 079e ddbc 1621 823e e743 963e cad8 ae3e
000003b0: 2486 763e 8f01 143e ab43 a93e 9d65 b93e
000003c0: 51cc 4c3d 9e1e 16be 5734 b6bc 8269 f6bd
000003d0: 6da9 34bd a835 8b3e 5c31 6cbe 9de2 3b3d
000003e0: a6f8 47be 7887 c63e 3130 5a3e 9823 923e
000003f0: af70 99be 3eab 2fbd a5fc f8bd 1944 acbe

fc1.bias f4 [800]
4.607108e-06 4.5128338e-05 5.7097142e-05 7.1117385e-05 2.2781369e-05 -0.00015827226 -2.1567863e-05 -0.00011605917
3.2120675e-05 -6.578121e-05 0.00023763321 3.7523423e-05 9.328299e-05 -3.7086145e-05 -5.491324e-05 0.000119714314
-0.00012686264 1.531671e-05 -4.7849593e-05 9.010725e-06 7.590493e-05 -2.8628263e-05 0.00010510496 -0.00013197154
-2.9958188e-05 1.2376504e-05 2.7048667e-05 6.853252e-05 1.6987847e-06 0.00017304478 2.539892e-05 5.0218892e-05
0.0001241325 -4.1505377e-06 -0.00014904691 -1.3024075e-05 -4.850184e-05 0.00017030239 -2.929159e-05 9.819316e-06
0.0002347649 -5.7619072e-05 4.9463186e-05 0.00013705745 1.2290301e-05 -0.00012557092 -2.476422e-05 4.9614006e-05
5.170301e-05 -9.475646e-05 -3.825123e-05 -9.952623e-05 -0.00013896277 0.00012742945 -1.7830083e-05 1.8667599e-05
3.0654774e-05 -9.935947e-05 -5.4430606e-05 -7.876259e-06 1.241658e-05 5.6474832e-06 -2.5321842e-06 -1.171536e-05
-5.122273e-05 -8.266151e-05 -3.8736078e-05 -4.8507332e-05 2.3345221e-05 -9.637956e-05 8.628597e-05 1.681948e-05
-6.841939e-05 2.4288864e-05 -1.2905147e-05 7.554182e-05 8.180789e-05 5.486567e-05 -2.033846e-05 -0.00015986919
6.46468e-06 -4.8668004e-05 -1.5233648e-05 4.997828e-06 -4.9740698e-05 4.12664e-05 -7.747209e-05 8.786227e-05
-2.3982884e-05 -0.00020234272 8.590647e-05 -5.013889e-06 4.227522e-05 -8.4338426e-05 7.15424e-05 -0.00016308574
-0.0002138276 0.00012684215 2.648759e-05 -0.00020763912 -4.7001307e-05 -0.00015021062 5.246183e-05 5.544061e-06
-6.774637e-05 -7.0494257e-06 -1.9189692e-05 9.3437875e-06 2.6035226e-05 4.4443317e-05 3.379969e-05 5.2272007e-05
-2.407679e-07 -2.1379816e-05 0.00010406092 1.9257694e-05 5.2075862e-05 -0.00020614713 -3.100471e-05 -1.9356585e-05
-7.858659e-06 -3.5459405e-05 -0.00013692927 -7.079996e-05 4.767352e-05 4.7554826e-05 -0.00031579856 0.000110613335
3.308414e-05 3.745252e-05 3.0192226e-05 5.4050317e-05 -1.544032e-05 -2.9273902e-05 -3.212971e-05 8.118885e-05
-0.00014128831 7.0316964e-05 6.775226e-05 -1.5763448e-05 3.5461075e-05 5.33282e-06 0.00010099606 -9.593017e-05
-3.9881706e-05 -7.334114e-05 9.06449e-05 -4.1803123e-05 -2.3541364e-05 -2.0783623e-06 -2.9534927e-05 -7.149187e-05
8.965541e-06 -1.4811916e-05 -3.190848e-05 -3.7766917e-05 -0.00026811875 -8.8377055e-05 0.00010637682 5.378643e-05
-7.7827746e-05 -1.7791286e-05 7.327988e-05 -2.8214115e-05 -2.9813114e-05 7.163165e-05 -7.218124e-06 -6.8179374e-06
-9.095137e-05 9.316019e-05 -2.2703382e-05 -9.311698e-05 -9.2017035e-05 -5.7611713e-05 2.393941e-05 -9.371082e-05
5.9438808e-05 -6.718545e-05 -3.0235674e-06 2.1630003e-05 -1.6062182e-05 -7.8483885e-05 -5.3941376e-06 -0.00034845137
3.1235682e-05 -7.4136886e-05 -6.0289745e-05 -2.7653874e-05 8.3814746e-05 -8.6244865e-05 0.00020084174 6.112717e-05
-5.918714e-05 -3.7025875e-05 -3.9312094e-05 1.970932e-05 0.00010353013 -6.9716385e-05 -0.00016251738 1.7753126e-05
4.5552566e-05 -3.6694077e-05 -2.8322744e-05 -9.635355e-05 5.696569e-05 -4.7475205e-05 1.7818258e-05 -3.0904506e-05
7.992813e-05 -1.20012155e-05 7.530801e-06 -3.171915e-05 5.711257e-05 -1.4555525e-05 -8.062881e-05 0.00012806288
1.6387403e-05 5.6153764e-05 0.0001156807 -0.00014719288 1.0628154e-06 -0.00017984553 -1.7965922e-06 -1.5508153e-05
2.7737064e-05 -9.515974e-06 1.0035289e-05 -4.2717944e-05 -1.8270142e-05 4.8614173e-05 -1.6440448e-05 4.0629126e-05
-0.00012707408 0.00016377872 -7.613211e-05 7.6078446e-05 -2.1810536e-05 -1.9726235e-06 7.682493e-06 -0.00012297928
-8.663064e-05 8.592939e-05 -9.1469956e-05 -1.3853127e-05 -6.569786e-05 3.743874e-05 -0.00014426539 -9.399403e-06
1.1954763e-06 -2.3480266e-06 -8.302609e-06 -5.252203e-07 -4.5583238e-05 4.0644936e-05 -0.00014952653 -3.9139584e-05
00000000: c296 9a36 2f48 3d38 977b 6f38 db24 9538
00000010: 9e1a bf37 e3f5 25b9 a2ec b4b7 cb64 f3b8
00000020: 50b9 0638 05f4 89b8 2e2d 7939 7862 1d38
00000030: eda0 c338 f28c 1bb8 a452 66b8 220f fb38
00000040: 6e06 05b9 627c 8037 1cb2 48b8 c52c 1737
00000050: 262f 9f38 ba26 f0b7 cc6b dc38 d761 0ab9
00000060: b84e fbb7 aea4 4f37 92e6 e237 1eb9 8f38
00000070: cc01 e435 5b73 3539 c40f d537 20a2 5238
00000080: 9029 0239 d944 8bb6 7a49 1cb9 fa81 5ab7
00000090: 746e 4bb8 3393 3239 36b7 f5b7 a4bd 2437
000000a0: 392b 7639 02ac 71b8 b176 4f38 14b7 0f39
000000b0: 7132 4e37 b0ab 03b9 c2bc cfb7 a218 5038
000000c0: afdb 5838 fdb7 c6b8 f26f 20b8 bdb8 d0b8
000000d0: 89b6 11b9 959e 0539 d091 95b7 5d98 9c37
000000e0: 5093 0038 365f d0b8 6b4c 64b8 4624 04b7
000000f0: ce50 5037 837f bd36 98ee 29b6 178d 44b7
00000100: fdd7 56b8 8f5a adb8 8c78 22b8 5a74 4bb8
00000110: 7bd5 c337 621f cab8 6df4 b438 8f17 8d37
00000120: 617c 8fb8 f0bf cb37 2f83 58b7 356c 9e38
00000130: 4790 ab38 911f 6638 839c aab7 8fa2 27b9
00000140: 2eeb d836 df20 4cb8 0594 7fb7 04b3 a736
00000150: aba0 50b8 7615 2d38 8378 a2b8 b242 b838
00000160: da2e c9b7 f62b 54b9 af28 b438 fb3c a8b6
00000170: ac50 3138 d9de b0b8 0909 9638 ff01 2bb9
00000180: e936 60b9 ee00 0539 ab31 de37 b4b9 59b9
00000190: 4523 45b8 db81 1db9 760a 5c38 1f07 ba36
000001a0: 0e13 8eb8 1b8a ecb6 8df9 a0b7 43c3 1c37
000001b0: 3966 da37 a668 3a38 24c4 0d38 a43e 5b38
000001c0: e342 81b4 ce58 b3b7 483b da38 958b a137
000001d0: 086c 5a38 3329 58b9 0e0b 02b8 f35f a2b7
000001e0: afd8 03b7 3fba 14b8 ac94 0fb9 707a 94b8
000001f0: 0df5 4738 9b75 4738 c491 a5b9 15f9 e738
00000200: d3c3 0a38 5616 1d38 5045 fd37 16b4 6238
00000210: d685 81b7 3a91 f5b7 03c3 06b8 ef43 aa38
00000220: cb26 14b9 2277 9338 3816 8e38 bf3b 84b7
00000230: 0abc 1438 93f0 b236 d9cd d338 1e2e c9b8
00000240: a846 27b8 bace 99b8 9c18 be38 c355 2fb8
00000250: b27a c5b7 fe79 0bb6 c6c1 f7b7 e8ed 95b8
00000260: b56a 1637 b280 78b7 78d5 05b8 eb67 1eb8
00000270: 4a92 8cb9 1257 b9b8 9f16 df38 bd98 6138
00000280: 7437 a3b8 7f3e 95b7 d6ad 9938 5aad ecb7
00000290: 2d17 fab7 f338 9638 3733 f2b6 a3c5 e4b6
000002a0: 25bd beb8 ff5e c338 2473 beb7 cc47 c3b8
000002b0: 45f9 c0b8 1ba4 71b8 7ed1 c837 9d86 c4b8
000002c0: ef4d 7938 eae5 8cb8 7ee8 4ab6 1472 b537
000002d0: 46bd 86b7 b797 a4b8 4aff b4b6 5ab0 b6b9
000002e0: 0f03 0338 f079 9bb8 9fdf 7cb8 3efa e7b7
000002f0: b3c5 af38 5cde b4b8 0b99 5239 6631 8038
00000300: b53f 78b8 3b4c 1bb8 0ae3 24b8 7155 a537
00000310: 511e d938 b334 92b8 6d69 2ab9 8cec 9437
00000320: b20f 3f38 f7e7 19b8 a196 edb7 6b11 cab8
00000330: 72ee 6e38 1d20 47b8 6b78 9537 769f 01b8
00000340: 179f a738 d458 49b7 17b1 fc36 2e0a 05b8
00000350: 288c 6f38 8133 74b7 4317 a9b8 9e48 0639
00000360: ae77 8937 a586 6b38 9a99 f238 ca57 1ab9
00000370: 0fa6 8e35 eb94 3cb9 7022 f1b5 8117 82b7
00000380: e4ac e837 cca6 1fb7 3d5d 2837 0b2c 33b8
00000390: d542 99b7 12e7 4b38 98e9 89b7 3169 2a38
000003a0: 303f 05b9 04bc 2b39 1ea9 9fb8 4e8c 9f38
000003b0: c5f5 b6b7 6a61 04b6 0ee4 0037 00f4 00b9
000003c0: 79ad b5b8 fd34 b438 8fd3 bfb8 ba6a 68b7
000003d0: 45c7 89b8 8a07 1d38 f245 17b9 21b2 1db7
000003e0: 4174 a035 ca92 1db6 6f4b 0bb7 ddfc 0cb5
000003f0: a130 3fb8 2b7a 2a38 39ca 1cb9 cf29 24b8

bn1.weight f4 [800]
0.50766236 0.9309604 0.9826974 0.838525 0.92009753 0.8718233 0.71100163 0.8269522
0.87901676 0.98032844 0.8908579 0.8074752 1.0602776 0.881453 0.8923421 0.8687112
0.7388553 0.8388766 0.99474233 0.7634254 0.8928615 0.5590894 0.83603096 0.9404098
0.41421586 0.84349877 0.79496515 1.0727857 0.6992702 0.8097384 0.9493935 0.8074984
0.8444628 0.87056845 0.9791853 0.81175894 1.0120716 0.9369264 0.55717057 0.713004
1.0629919 0.92053086 0.668865 1.0614313 0.78515947 1.1913071 0.77459633 0.75292987
0.6968406 0.7568059 1.0827713 0.53140295 0.8365833 0.9569788 0.80259454 0.9019962
1.0528767 1.0662118 1.0018679 0.7248141 0.91147816 0.8454679 0.765815 0.85795414
0.9700111 0.80023944 0.74144125 0.7174472 0.909185 0.7556262 1.1645763 0.7546273
1.146258 0.86443543 0.71079355 0.80429924 0.61648196 0.91770023 0.685729 0.99913996
0.8778809 1.0182726 0.61771035 0.82882 0.6890748 1.1061822 0.7642869 1.0280354
0.7311261 0.9280039 0.6813872 0.86945957 0.42407507 0.86446154 0.9675582 0.9386408
1.1213804 0.75081587 0.563115 0.8122871 0.85548913 0.91445667 0.7999852 0.8546406
0.8778267 0.6593116 0.64853215 0.85627335 0.7174516 0.6549892 0.77245414 0.87965935
0.62426674 0.5653285 0.9803457 0.75886965 0.82066536 0.975295 0.9608063 0.62950647
0.6873589 0.83482766 0.86954176 0.8505833 0.7464605 0.7610678 0.9555528 0.70718044
0.8376202 0.777004 1.0939404 0.91324 0.9853244 0.5450477 1.0276955 0.65039253
1.0602217 0.969224 0.84908867 0.5827887 0.8724598 0.88659227 0.6772069 1.0265725
0.8260179 0.74293506 0.7092364 0.64136523 0.77001035 0.67723954 0.9551415 0.9305058
0.886332 0.8450672 0.80681115 0.35109904 0.9608549 0.8598499 0.53545606 0.8385372
0.94064426 0.52802783 0.6781598 0.7950746 0.9181431 0.5671568 0.6273668 1.023194
0.8903381 0.7791361 0.61154586 1.23593 0.9911578 0.92655313 0.9846908 0.9777141
1.0174557 0.8552008 0.91176355 0.96136916 0.7231508 0.6596566 0.8625246 0.971335
0.6897958 0.75657344 0.92815113 0.61139536 0.8653123 0.8791511 0.97520614 0.8273063
0.8052327 0.86881363 1.0274991 1.0470074 0.9138587 0.6865919 0.9587537 0.94203275
0.8745608 0.86758536 0.8884675 0.84224254 0.93020356 0.797646 0.96179754 0.5790041
0.7413459 0.48693657 0.9063634 0.5951284 0.90798 0.9020537 0.92984223 0.9054055
0.96506864 0.41247946 0.952713 0.92161006 0.8335177 0.8721424 0.9753731 0.9383638
0.6603532 0.5978057 0.6613966 0.6983456 0.78325933 0.7012901 0.7147604 0.8463733
0.7641455 0.67295367 0.8631164 0.8890222 0.72809756 0.7843977 0.60266125 0.8279733
0.7784501 1.0140728 0.6819144 0.97929174 0.84376585 0.82953376 1.1362283 0.8269178
0.91640335 0.7335976 1.0218928 0.74574596 0.76110494 0.46142098 0.8121687 0.7309846
00000000: 29f6 013f 6c53 6e3f 0f92 7b3f 93a9 563f
00000010: 838b 6b3f d02f 5f3f 3404 363f 24b3 533f
00000020: 3e07 613f cef6 7a3f 430f 643f b2b6 4e3f
00000030: 2db7 873f e7a6 613f 8870 643f db63 5e3f
00000040: 9f25 3d3f 9ec0 563f 6fa7 7e3f d96f 433f
00000050: 9292 643f 7c20 0f3f 2006 563f b2be 703f
00000060: 1a14 d43e 89ef 573f d682 4b3f 0b51 893f
00000070: 5f03 333f 044b 4f3f 740b 733f 37b8 4e3f
00000080: b72e 583f 93dd 5e3f e3ab 7a3f 6fcf 4f3f
00000090: 908b 813f 69da 6f3f bba2 0e3f 6e87 363f
000000a0: 1e10 883f e9a7 6b3f bd3a 2b3f fbdc 873f
000000b0: 3600 493f c07c 983f f24b 463f 03c0 403f
000000c0: 2564 323f 08be 413f 4098 8a3f 060a 083f
000000d0: 532a 563f 90fc 743f d676 4d3f 39e9 663f
000000e0: aac4 863f a179 883f 353d 803f 6b8d 393f
000000f0: a256 693f 9670 583f 740c 443f e2a2 5b3f
00000100: a652 783f 7edc 4c3f 18cf 3d3f 9faa 373f
00000110: 59c0 683f b870 413f d610 953f 412f 413f
00000120: 95b8 923f a44b 5d3f 91f6 353f 8ee6 4d3f
00000130: c3d1 1d3f 67ee 6a3f f08b 2f3f a3c7 7f3f
00000140: cdbc 603f c256 823f 4422 1e3f 8c2d 543f
00000150: 3567 303f 6197 8d3f 4ea8 433f aa96 833f
00000160: 152b 3b3f aa91 6d3f 646f 2e3f e794 5e3f
00000170: 5e20 d93e 5a4d 5d3f e5b1 773f c34a 703f
00000180: 6589 8f3f 7835 403f 4e28 103f 0cf2 4f3f
00000190: 5601 5b3f d519 6a3f d4cb 4c3f bac9 5a3f
000001a0: 40b9 603f a5c8 283f 3406 263f bb34 5b3f
000001b0: e8aa 373f 5fad 273f 8ebf 453f 5b31 613f
000001c0: f2cf 1f3f 5eb9 103f f0f7 7a3f 4845 423f
000001d0: 2017 523f efac 793f 67f7 753f 5627 213f
000001e0: c1f6 2f3f 44b7 553f 4a9a 5e3f d4bf 593f
000001f0: 0918 3f3f 57d5 423f 1c9f 743f c709 353f
00000200: 476e 563f bce9 463f 3d06 8c3f 19ca 693f
00000210: 383e 7c3f 3f88 0b3f 878b 833f 2080 263f
00000220: 58b5 873f 101f 783f e05d 593f a431 153f
00000230: 8759 5f3f b6f7 623f 6e5d 2d3f ba66 833f
00000240: e975 533f fe30 3e3f 8490 353f 8330 243f
00000250: 661f 453f 925f 2d3f 2784 743f a135 6e3f
00000260: a7e6 623f 5356 583f 2d8b 4e3f 41c3 b33e
00000270: 96fa 753f 1f1f 5c3f a613 093f 60aa 563f
00000280: 10ce 703f d52c 073f e19b 2d3f 028a 4b3f
00000290: 6d0b 6b3f 3031 113f 1c9b 203f 05f8 823f
000002a0: 33ed 633f 7775 473f 458e 1c3f f432 9e3f
000002b0: 85bc 7d3f 9632 6d3f b214 7c3f 794b 7a3f
000002c0: fd3b 823f 71ee 5a3f 5669 693f 4a1c 763f
000002d0: 6920 393f 41df 283f 6ace 5c3f 69a9 783f
000002e0: 7596 303f ccae 413f 509b 6d3f 6884 1c3f
000002f0: 1b85 5d3f 0c10 613f 1ca7 793f 58ca 533f
00000300: bb23 4e3f 926a 5e3f 1785 833f 5704 863f
00000310: a5f2 693f 7dc4 2f3f e270 753f 0f29 713f
00000320: 37e3 5f3f 131a 5e3f 9b72 633f 359d 573f
00000330: d221 6e3f 8732 4c3f 5d38 763f 9d39 143f
00000340: d8c8 3d3f c04f f93e 6f07 683f 565a 183f
00000350: 6171 683f feec 663f 240a 6e3f a8c8 673f
00000360: bd0e 773f 8230 d33e 00e5 733f a3ee 6b3f
00000370: 6a61 553f b944 5f3f 0db2 793f 9c38 703f
00000380: e80c 293f cb09 193f 4a51 293f c7c6 323f
00000390: af83 483f bf87 333f 8afa 363f ecab 583f
000003a0: 0a9f 433f b146 2c3f 32f5 5c3f f596 633f
000003b0: 9a64 3a3f 4ace 483f 0248 1a3f 0ff6 533f
000003c0: 8148 473f 23cd 813f f191 2e3f ddb2 7a3f
000003d0: 0a01 583f 535c 543f ee6f 913f e3b0 533f
000003e0: 6999 6a3f 0dcd 3b3f 62cd 823f 35e9 3e3f
000003f0: c6d7 423f 5f3f ec3e 4aea 4f3f cf21 3b3f

bn1.bias f4 [800]
-0.25073963 -0.25314882 -0.073928855 -0.23800401 -0.35930586 -0.041099526 -0.17655362 -0.16962811
-0.10952792 -0.23104547 -0.12219975 -0.39044917 -0.17876285 -0.25675988 0.013173464 -0.1708014
-0.25824785 -0.3462118 -0.2676989 -0.18618074 -0.11754289 -0.09182223 -0.18394095 -0.15420885
-0.17512798 -0.340859 -0.19359973 -0.40664193 -0.11329982 -0.060431432 -0.364729 -0.10411212
-0.09753863 -0.27012786 -0.33757344 -0.18659146 -0.48652586 -0.15657042 -0.20354277 -0.25284484
-0.38432238 -0.22399607 -0.11963425 -0.29739845 -0.18028434 -0.18818939 -0.102658734 -0.15628679
-0.20177674 -0.25032344 -0.26060832 -0.09654979 -0.23305477 -0.10521882 -0.29921204 -0.23942123
-0.58255756 -0.26437384 -0.40486622 -0.4066078 -0.26010835 -0.31198397 -0.29161662 -0.34011656
-0.23390786 0.06411302 -0.42687508 -0.2724403 -0.168248 -0.3633144 -0.29991746 -0.17022988
-0.08082106 -0.39823827 -0.11932853 0.00013671453 -0.19237062 -0.2577592 -0.19882661 -0.26779747
-0.2831689 -0.3123784 -0.1337226 -0.15824765 -0.14698659 -0.08968646 -0.20719725 -0.23031244
-0.17781323 -0.30272457 -0.14177929 -0.1648612 -0.12341368 -0.29925907 -0.3940706 -0.033223785
-0.18565062 -0.08537849 -0.18166871 -0.15957138 -0.523127 -0.458761 -0.58341354 -0.17924875
-0.13829355 -0.21988714 -0.02947436 -0.36203015 -0.29821205 -0.25872386 -0.28267366 -0.06227357
-0.07356445 -0.20941173 -0.30657086 -0.4625968 -0.3383899 -0.089992575 -0.20888145 -0.23981312
-0.074455775 -0.14498188 -0.40489507 -0.3227708 -0.34168994 -0.36764044 -0.10761943 -0.26067957
-0.18199995 -0.14115478 -0.39108333 -0.24480048 -0.2839365 -0.19496775 -0.1384835 -0.19218685
-0.4681862 -0.20407802 -0.199161 -0.25612912 -0.08151288 -0.48566005 -0.14008263 -0.31593743
0.04677884 -0.3101599 -0.106830925 -0.20679057 -0.13365494 -0.39793363 -0.346021 -0.29453918
-0.37560758 -0.37415028 -0.050847836 0.019226003 -0.20225637 -0.14743255 -0.084575884 -0.4758829
-0.31758082 -0.15061866 -0.06864395 -0.32208428 -0.17894347 -0.13583262 -0.25658274 -0.35016927
-0.19448051 -0.1267802 -0.12477309 -0.11549212 -0.32598418 -0.3581506 -0.3016877 -0.17533457
-0.34878996 -0.2602458 -0.17914255 -0.24859512 -0.34794348 -0.048278987 -0.13286066 -0.37279648
-0.034476936 -0.29821607 -0.17907958 -0.037089203 -0.19490488 -0.04443792 -0.0074765068 -0.09743676
-0.20288563 -0.16384551 -0.21523072 -0.0056789843 -0.22649162 -0.1434212 -0.3250285 -0.255698
-0.23858374 0.03522356 -0.046479184 -0.1263917 -0.35488844 -0.30235562 -0.17236571 -0.22178371
-0.16552389 -0.042276755 -0.27496636 -0.14973825 -0.31531635 -0.17516404 -0.3327335 -0.5385568
-0.18287265 -0.051248785 -0.26290196 -0.20995592 -0.27589327 0.08600823 -0.35104913 -0.26971647
-0.19576296 -0.1505114 -0.13731186 -0.29902324 -0.36849806 -0.14540426 0.0027039922 -0.3943801
-0.20217547 -0.09438342 -0.24127749 -0.10694712 -0.017997941 -0.19688727 -0.21137154 -0.16429399
-0.13131492 -0.32455525 -0.2765617 -0.15837169 -0.13616359 -0.35260618 -0.275771 -0.27196625
-0.14872803 0.033821195 -0.13641632 -0.3828479 -0.20076363 -0.029405635 -0.048153143 -0.31059486
00000000: f260 80be b99c 81be 0368 97bd 53b7 73be
00000010: f0f6 b7be fa57 28bd 79ca 34be feb2 2dbe
00000020: 2d50 e0bd 2f97 6cbe dd43 fabd f4e8 c7be
00000030: 9c0d 37be 0876 83be 83d5 573c 90e6 2ebe
00000040: 1039 84be ac42 b1be d50f 89be 2aa6 3ebe
00000050: 54ba f0bd 4b0d bcbd 045b 3cbe ede8 1dbe
00000060: c054 33be 1285 aebe 023f 46be 5f33 d0be
00000070: bc09 e8bd f386 77bd c2bd babe bc38 d5bd
00000080: 55c2 c7bd 334e 8abe 6dd6 acbe d511 3fbe
00000090: eb19 f9be ff53 20be 846d 50be e174 81be
000000a0: e7c5 c4be 3a5f 65be cd02 f5bd 9c44 98be
000000b0: 759c 38be b8b4 40be be3e d2bd a509 20be
000000c0: 909e 4ebe 652a 80be 746e 85be e5bb c5bd
000000d0: e9a5 6ebe f77c d7bd 5232 99be d72a 75be
000000e0: 7e22 15bf 025c 87be a04a cfbe e62e d0be
000000f0: ec2c 85be 5dbc 9fbe c64e 95be c223 aebe
00000100: 8b85 6fbe b04d 833d 5f8f dabe 4c7d 8bbe
00000110: 3449 2cbe 5804 babe c88e 99be be50 2ebe
00000120: 8385 a5bd e3e5 cbbe 8462 f4bd 075b 0f39
00000130: cefc 44be 04f9 83be 3499 4bbe c01c 89be
00000140: 84fb 90be 10f0 9fbe 94ee 08be ac0b 22be
00000150: a783 16be 89ad b7bd 842b 54be 06d7 6bbe
00000160: ac14 36be b7fe 9abe 972e 11be 60d1 28be
00000170: 50c0 fcbd 7c38 99be 9fc3 c9be aa15 08bd
00000180: 321b 3ebe ebda aebd 5d07 3abe ae66 23be
00000190: a7eb 05bf b9e2 eabe 975a 15bf fc8c 37be
000001a0: d39c 0dbe 182a 61be 3774 f1bc 045c b9be
000001b0: 40af 98be 7477 84be 9aba 90be 9212 7fbd
000001c0: f5a8 96bd 0770 56be dbf6 9cbe 7dd9 ecbe
000001d0: 7141 adbe 074e b8bd 05e5 55be 9291 75be
000001e0: 457c 98bd 2176 14be 684e cfbe 3742 a5be
000001f0: fcf1 aebe 5e3b bcbe 9367 dcbd cb77 85be
00000200: 325e 3abe e18a 10be 133c c8be faac 7abe
00000210: 2060 91be a0a5 47be 9ece 0dbe a1cc 44be
00000220: 1ab6 efbe d4f9 50be dcf0 4bbe 5b23 83be
00000230: 3af0 a6bd 6fa8 f8be d271 0fbe 8dc2 a1be
00000240: 2b9b 3f3d 47cd 9ebe 2cca dabd e8c0 53be
00000250: d7dc 08be f5bd cbbe aa29 b1be d7cd 96be
00000260: a34f c0be a090 bfbe d245 50bd da7f 9d3c
00000270: 4b1c 4fbe 8ff8 16be 1f36 adbd eca6 f3be
00000280: f499 a2be c73b 1abe 3395 8cbd 3be8 a4be
00000290: f53c 37be b517 0bbe d05e 83be 6349 b3be
000002a0: e625 47be abd2 01be 0989 ffbd 2287 ecbd
000002b0: 66e7 a6be 845f b7be cf76 9abe e88a 33be
000002c0: 9994 b2be f03e 85be 2571 37be b88f 7ebe
000002d0: a625 b2be 30c0 45bd a00c 08be 2edf bebe
000002e0: b037 0dbd c7af 98be a360 37be d9ea 17bd
000002f0: 2595 47be 8904 36bd 7cfd f4bb ed8c c7bd
00000300: 40c1 4fbe 1ec7 27be 7165 5cbe c616 babb
00000310: 6bed 67be 02dd 12be 236a a6be d9ea 82be
00000320: 4c4f 74be 9446 103d f560 3ebd d36c 01be
00000330: f0b3 b5be 5bce 9abe a380 30be 451b 63be
00000340: 187f 29be 642a 2dbd 64c8 8cbe fc54 19be
00000350: 2571 a1be 345e 33be 0c5c aabe dcde 09bf
00000360: f842 3bbe 3fea 51bd 169b 86be affe 56be
00000370: e241 8dbe 1525 b03d b6bc b3be 4718 8abe
00000380: 1676 48be a91f 1abe 7b9b 0cbe 9319 99be
00000390: c7ab bcbe dbe4 14be 7635 313b 30ec c9be
000003a0: 1607 4fbe 184c c1bd 7211 77be 1707 dbbd
000003b0: 6b70 93bc d19c 49be c871 58be af3c 28be
000003c0: 6b77 06be 1b2c a6be 7f99 8dbe 302c 22be
000003d0: 786e 0bbe cc88 b4be db31 8dbe 293f 8bbe
000003e0: 294c 18be 1888 0a3d b8b0 0bbe a404 c4be
000003f0: fb94 4dbe 16e4 f0bc 3b3c 45bd 4a06 9fbe

bn1.running_mean f4 [800]
-0.0047744038 0.0054893075 0.005152083 0.007163945 -0.0013534524 0.0048259506 0.012297986 0.0001242775
-0.005478436 0.0007560089 0.009553804 0.0039987992 0.0016270082 0.007647776 0.005741133 0.00060663704
0.003092477 0.0005445495 -0.004451248 -0.0050748996 -0.0001231616 0.0039084097 0.006338274 -0.006872181
-0.0054503772 0.0099222865 0.002569617 0.002487814 0.0019521345 -0.0026950266 0.007996321 0.0042810985
0.006932831 0.0035880702 0.002818936 0.00607722 0.005799917 0.0027604972 0.0033543257 -0.0026655295
0.00013426619 0.0065459823 -0.00078119425 0.0034614333 0.0038631256 0.0060037677 0.0044541005 0.0038356732
0.0037118692 -0.0015637953 0.01084941 0.0071538156 -0.0018381985 0.004308292 -0.0048969174 0.0004953117
-0.0025657746 0.004381281 -0.006815109 0.0009343669 -0.0050856285 -0.0072844513 -0.0071039665 -0.0017413173
0.0096079 0.004681743 -0.0019319019 -0.0048370925 0.008680459 -0.0057500717 0.006822398 -0.0058608437
0.011652169 0.0068952176 0.0069591384 0.0038031312 0.0030892708 0.003008824 0.005443554 0.007634118
-0.0020597344 0.009583382 -0.0014231042 0.00470044 -0.0027159199 0.00709956 -0.001431916 0.0076146256
-0.011595126 -0.006584978 0.0022210858 0.0025826725 -0.008787193 0.006439728 -0.0030446355 -0.00025723054
-0.0009623051 -0.0068732924 -0.009840629 -0.00064672733 -0.0003225035 -0.0026334496 -0.0062364247 -0.0018962495
0.0013953352 -0.0028632614 -0.0022044627 0.0023084288 0.0016278011 -0.0034989999 0.00349316 0.005223465
-0.00063935394 -0.008549567 0.009309443 0.0011824796 0.010439143 0.005833642 -0.0031853698 0.011742153
-0.004836775 0.007429241 -0.0034173608 0.0016057019 0.0062180734 -0.0058622574 0.0006048182 0.0032752263
0.0031968432 0.00040568563 0.0072424137 0.00028383505 0.004453498 0.0011357219 0.0048835254 0.0085088415
0.0026491617 0.0011466889 -0.0067710914 0.003175967 -0.0066401884 -0.00063638896 0.008701688 0.003180425
0.0010726698 -0.0118099665 -0.0011498098 -0.0024691713 0.004129924 -0.010970044 0.0012598069 0.008209021
0.0031313004 -0.0043608607 -0.002837239 -0.006429873 0.006069729 -0.0021049532 0.0056601684 -0.00072434096
0.008732861 -0.0020600574 0.0019969668 -0.002771312 0.0066901124 -0.0029902875 -0.001768714 -0.0031562953
0.0022991728 0.009121639 -0.0030758684 0.006848589 0.003067498 0.003453681 0.003344166 -0.004760935
0.010281076 -0.00077431253 -0.0010232113 0.004823509 0.008384592 -0.0009786893 0.0019115675 0.0065364987
0.008910023 0.0045662853 0.0057342914 -0.003984008 -0.0036406843 0.0073992307 0.009336962 -0.0019794716
-0.0049178465 0.0011350549 0.008530009 0.0018856573 0.0019315926 -0.00488658 0.004623061 0.0038364579
-0.0024049599 0.005516592 0.002547779 -0.0019406122 0.00277795 0.0006251455 0.002156879 -0.00022147463
0.01080286 -0.006510851 0.0014345826 0.009479927 0.0053053484 0.0064597772 0.007892795 -0.006376172
0.006020708 0.00641583 -0.009308656 0.00092330365 -0.0016596551 0.010012732 0.009406674 0.0051266043
-0.0016051856 -0.0013923836 0.0064517627 -0.00010702457 0.0023435159 0.005673137 0.010936204 0.006304254
0.0012974335 -0.0017459922 -0.0070496863 0.0010246119 0.00015721438 0.006979701 -0.001729798 -0.0037178188
0.0069643003 0.002475387 0.0074173203 0.00014793305 0.002981027 -0.010535637 -0.006646002 -0.0044103656
0.00010260045 -0.0005442797 -0.004780286 -0.00016846653 0.00017710448 0.0024027752 0.0021582374 0.0029042566
00000000: 9a72 9cbb a6df b33b ced2 a83b 87bf ea3b
00000010: 5466 b1ba 0223 9e3b 7e7d 493c 7d50 0239
00000020: 7484 b3bb e62e 463a 8f87 1c3c 5c08 833b
00000030: 5641 d53a 329a fa3b 1d20 bc3b b906 1f3a
00000040: 28ab 4a3b 19c0 0e3a c6db 91bb 584b a6bb
00000050: f124 01b9 1e12 803b 4cb1 cf3b 0830 e1bb
00000060: 1499 b2bb 1691 223c 0567 283b 980a 233b
00000070: c4de ff3a 0b9f 30bb 0003 033c 7548 8c3b
00000080: cd2c e33b d425 6b3b e6bd 383b 6b23 c73b
00000090: 3b0d be3b 75e9 343b 3fd4 5b3b 2ab0 2ebb
000000a0: cec9 0c39 ae7f d63b 0fc9 4cba 37d9 623b
000000b0: 7e2c 7d3b 41bb c43b b4f3 913b eb5f 7b3b
000000c0: d542 733b 43f8 ccba b9c1 313c 8e6a ea3b
000000d0: b5ef f0ba 932c 8d3b 5276 a0bb ced7 013a
000000e0: 8e26 28bb d990 8f3b 4751 dfbb 4df0 743a
000000f0: 58a5 a6bb 68b2 eebb 64c8 e8bb ea3c e4ba
00000100: 746a 1d3c 4f69 993b df37 fdba 7980 9ebb
00000110: 7c38 0e3c 196b bcbb 6c8e df3b 520c c0bb
00000120: bde8 3e3c 47f1 e13b 7c09 e43b f43d 793b
00000130: 5d75 4a3b b12f 453b d75f b23b a027 fa3b
00000140: 9cfc 06bb 9e03 1d3c 7487 baba 2606 9a3b
00000150: 93fd 31bb 6da3 e83b 21af bbba 1c84 f93b
00000160: 7cf9 3dbc cdc6 d7bb a38f 113b 0e42 293b
00000170: 29f8 0fbc 5b04 d33b 8288 47bb e6dc 86b9
00000180: 3443 7cba 5b39 e1bb 973a 21bc 2389 29ba
00000190: b015 a9b9 f495 2cbb ec5a ccbb 938b f8ba
000001a0: aee3 b63a 8ea5 3bbb bf78 10bb 0249 173b
000001b0: f15b d53a 7a4f 65bb 80ed 643b 9a29 ab3b
000001c0: 519a 27ba 7c13 0cbc a286 183c 6efd 9a3a
000001d0: f008 2b3c 2328 bf3b a3c1 50bb 2962 403c
000001e0: cf7d 9ebb fe70 f33b cdf5 5fbb 6a76 d23a
000001f0: fbc0 cb3b 2e18 c0bb aa8c 1e3a 2ea5 563b
00000200: 2182 513b 34b2 d439 c551 ed3b b2cf 9439
00000210: a6ee 913b 81dc 943a fb05 a03b ab68 0b3c
00000220: 8f9d 2d3b 7f4c 963a 08e0 ddbb e223 503b
00000230: f095 d9bb 57d3 26ba 8691 0e3c ad6e 503b
00000240: d398 8c3a 977e 41bc 37b5 96ba d2d1 21bb
00000250: 5054 873b b3bb 33bc 1b20 a53a 217f 063c
00000260: 8136 4d3b 8de5 8ebb f9f0 39bb afb1 d2bb
00000270: 94e4 c63b 41f3 09bb ef78 b93b b3e1 3dba
00000280: 4614 0f3c 0702 07bb 8bdf 023b e69e 35bb
00000290: bb38 db3b b3f8 43bb 32d4 e7ba d9d9 4ebb
000002a0: b8ad 163b ed72 153c 8294 49bb 216a e03b
000002b0: 1408 493b 2757 623b cc29 5b3b 9e01 9cbb
000002c0: f571 283c 3cfb 4aba 461d 86ba 870e 9e3b
000002d0: 875f 093c 5d47 80ba 908d fa3a 2030 d63b
000002e0: 58fb 113c c7a0 953b b9e6 bb3b 488c 82bb
000002f0: 8c98 6ebb 3f75 f23b 0ffa 183c 06ba 01bb
00000300: e325 a1bb 1fc6 943a 73c1 0b3c 2928 f73a
00000310: 7e2d fd3a 9b1f a0bb 0c7d 973b 156d 7b3b
00000320: 889c 1dbb 87c4 b43b a3f8 263b 245c feba
00000330: 440e 363b cee0 233a 6d5a 0d3b a53b 68b9
00000340: 7bfe 303c fa58 d5bb 9b08 bc3a b251 1b3c
00000350: 7dd8 ad3b 8aac d33b c850 013c 35ef d0bb
00000360: 5c49 c53b e23b d23b 5583 18bc dc09 723a
00000370: c988 d9ba 710c 243c 731e 1a3c 13fd a73b
00000380: 1765 d2ba a480 b6ba 4f69 d33b 6172 e0b8
00000390: ac95 193b b9e5 b93b c42d 333c ea93 ce3b
000003a0: a50e aa3a c7d9 e4ba 0e01 e7bb 454c 863a
000003b0: ead9 2439 fab5 e43b 64ba e2ba a6a6 73bb
000003c0: c934 e43b 1a3a 223b fe0c f33b 7a1e 1b39
000003d0: 555d 433b aa9d 2cbc b5c6 d9bb d484 90bb
000003e0: 322b d738 fead 0eba f2a3 9cbb 64a6 30b9
000003f0: 1fb5 3939 e177 1d3b 3771 0d3b 5755 3e3b

bn1.running_var f4 [800]
0.031620953 0.033338368 0.043097936 0.048713483 0.028389478 0.03825166 0.04454658 0.030780807
0.031381592 0.039854098 0.032371737 0.035881814 0.02497572 0.027996307 0.030451698 0.028510192
0.03768247 0.03223539 0.030934906 0.026346285 0.032856874 0.033991847 0.028062133 0.03616474
0.02448032 0.04144104 0.031984903 0.027502034 0.038167994 0.026333509 0.029784953 0.03132668
0.048036534 0.025515288 0.030736415 0.03482729 0.038568765 0.030388948 0.027726553 0.03364418
0.03283007 0.03170535 0.03460202 0.040335376 0.03452778 0.027796416 0.041271847 0.05503647
0.025736999 0.027373902 0.04560335 0.02261123 0.028710103 0.047044132 0.038348097 0.033582542
0.039310854 0.032447528 0.03134456 0.03715628 0.043858137 0.041661635 0.0346253 0.02922171
0.041417696 0.03637401 0.031887457 0.034225397 0.03131511 0.024046525 0.04442025 0.03845433
0.034537256 0.026411504 0.026640445 0.032949433 0.028822841 0.027002618 0.039420195 0.028268684
0.041397072 0.046535455 0.026922917 0.026400682 0.04042109 0.046489056 0.037754435 0.03452406
0.043173537 0.035253506 0.02938763 0.023569636 0.02932726 0.02359662 0.044740327 0.03336429
0.03603001 0.038900845 0.031506855 0.029279983 0.030010274 0.039009944 0.025410268 0.03854021
0.050108902 0.031124396 0.02951434 0.04568809 0.029517416 0.036703277 0.041825518 0.033388674
0.030149698 0.03199357 0.048104357 0.034577344 0.03357872 0.035978593 0.03318925 0.02931078
0.038720723 0.036646012 0.029725721 0.028544703 0.03789479 0.03221207 0.03467357 0.028966751
0.03379035 0.045211587 0.03349172 0.039243814 0.028876193 0.030602267 0.032843735 0.039394382
0.028845029 0.028727239 0.030978879 0.04089936 0.039151147 0.036240622 0.036452748 0.031463858
0.024985539 0.039116185 0.03318861 0.034060776 0.037911806 0.049201775 0.034915045 0.04071214
0.036728546 0.04007163 0.040145062 0.03728256 0.033509474 0.028430434 0.035194766 0.037232265
0.03200844 0.028095134 0.035181295 0.037509464 0.030879699 0.050557632 0.042089522 0.035557024
0.035497 0.027441315 0.033113103 0.03755851 0.034926586 0.027637435 0.033730384 0.026596172
0.055905707 0.03398001 0.031363703 0.036062438 0.034711573 0.04308662 0.03349274 0.0251989
0.039143775 0.026709048 0.02882578 0.031093573 0.027058627 0.038120586 0.03323519 0.042717755
0.026108883 0.037093673 0.037833117 0.040360074 0.034847636 0.025077228 0.037900593 0.030867198
0.030843284 0.033680417 0.027585967 0.046528067 0.031895727 0.04217128 0.030558746 0.036470346
0.0358241 0.030793201 0.032290787 0.03594252 0.041551087 0.033400606 0.038510773 0.033661366
0.026974557 0.027181337 0.037554264 0.034410957 0.0334922 0.035784826 0.030885864 0.029771164
0.045994725 0.029886596 0.0365489 0.032360047 0.030695764 0.031219307 0.03319525 0.034993663
0.039625034 0.028083835 0.034967776 0.029451713 0.024311278 0.031127367 0.026983978 0.04529957
0.026087295 0.04174767 0.031333745 0.045787875 0.024823548 0.034750085 0.04021895 0.04251903
0.03429765 0.026187202 0.030734133 0.027171127 0.04008263 0.027844813 0.041516904 0.033193234
00000000: f984 013d d08d 083d 7687 303d ca87 473d
00000010: 0d91 e83c c6ad 1c3d 7a76 363d 0828 fc3c
00000020: fc89 003d 0d3e 233d 3a98 043d cff8 123d
00000030: e299 cc3c 8358 e53c d775 f93c 358e e93c
00000040: ef58 1a3d 4209 043d 336b fd3c 2ad4 d73c
00000050: ee94 063d 093b 0b3d 8fe2 e53c 7a21 143d
00000060: f48a c83c 14be 293d 9a02 033d f24b e13c
00000070: 0b56 1c3d 5fb9 d73c 93ff f33c 6850 003d
00000080: f5c1 443d 7005 d13c efca fb3c 0fa7 0e3d
00000090: 48fa 1d3d 3ef2 f83c cc22 e33c 7bce 093d
000000a0: d378 063d 78dd 013d d9ba 0d3d b536 253d
000000b0: 006d 0d3d 4fb5 e33c ab0c 293d ec6d 613d
000000c0: 66d6 d23c 3c3f e03c 94ca 3a3d 303b b93c
000000d0: 7331 eb3c 59b1 403d e512 1d3d d98d 093d
000000e0: 6b04 213d b3e7 043d 2763 003d 2f31 183d
000000f0: 97a4 333d 64a5 2a3d 42d3 0d3d 5e62 ef3c
00000100: 9aa5 293d eafc 143d 6c9c 023d ee2f 0c3d
00000110: 4644 003d 38fd c43c 02f2 353d 4a82 1d3d
00000120: f076 0d3d f05c d83c 103d da3c fcf5 063d
00000130: e11d ec3c 9834 dd3c 1277 213d ba93 e73c
00000140: fa8f 293d f69b 3e3d 738d dc3c 3e46 d83c
00000150: 9690 253d 4f6b 3e3d 65a4 1a3d 1a69 0d3d
00000160: bcd6 303d fb65 103d 54be f03c 1c15 c13c
00000170: b93f f03c b34d c13c a241 373d fea8 083d
00000180: 3494 133d 7e56 1f3d 550d 013d 93dc ef3c
00000190: 1bd8 f53c e4c8 1f3d 3229 d03c 57dc 1d3d
000001a0: fe3e 4d3d 97f8 fe3c 0fc8 f13c 6f23 3b3d
000001b0: 82ce f13c 2d56 163d 3c51 2b3d 90c2 083d
000001c0: 80fc f63c b10b 033d 1309 453d f9a0 0d3d
000001d0: d789 093d 4a5e 133d 73f1 073d 291d f03c
000001e0: 9f99 1e3d 211a 163d 5b83 f33c 95d6 e93c
000001f0: 9137 1b3d cef0 033d e005 0e3d ae4b ed3c
00000200: c067 0a3d c92f 393d 9d2e 093d 1fbe 203d
00000210: c48d ec3c 9bb1 fa3c 2787 063d 015c 213d
00000220: 694c ec3c 6355 eb3c 6bc7 fd3c 1686 273d
00000230: f45c 203d 0c71 143d 7a4f 153d 3fe0 003d
00000240: 79ae cc3c 4b38 203d c8f0 073d 5083 0b3d
00000250: 6949 1b3d cd87 493d 1403 0f3d c6c1 263d
00000260: ac70 163d 2622 243d 266f 243d 99b5 183d
00000270: 3b41 093d f1e6 e83c 6328 103d dc80 183d
00000280: 481b 033d c427 e63c 431a 103d 86a3 193d
00000290: 6cf7 fc3c 8515 4f3d 1066 2c3d 3ea4 113d
000002a0: 4d65 113d 9ccc e03c 9ba1 073d f4d6 193d
000002b0: 2e0f 0f3d e767 e23c df28 0a3d 37e0 d93c
000002c0: 62fd 643d 9f2e 0b3d 3a77 003d 35b6 133d
000002d0: b92d 0e3d 987b 303d af2f 093d ec6d ce3c
000002e0: 3955 203d efcc da3c 0b24 ec3c f3b7 fe3c
000002f0: 0eaa dd3c 5524 1c3d 9f21 083d d0f8 2e3d
00000300: 4ce2 d53c 89ef 173d e6f6 1a3d 9b50 253d
00000310: 65bc 0e3d c26e cd3c a73d 1b3d 35dd fc3c
00000320: 0eab fc3c 7af4 093d f7fb e13c 3794 3e3d
00000330: 18a5 023d cbbb 2c3d 5656 fa3c ee61 153d
00000340: 4bbc 123d 0642 fc3c 5843 043d 7738 133d
00000350: 7931 2a3d 13cf 083d 79bd 1d3d 80e0 093d
00000360: bff9 dc3c 65ab de3c 80d2 193d 81f2 0c3d
00000370: 1e2f 093d 1c93 123d 5a04 fd3c a8e2 f33c
00000380: f764 3c3d bcd4 f43c 4db4 153d f88b 043d
00000390: af75 fb3c a2bf ff3c bef7 073d 8455 0f3d
000003a0: dc4d 223d 1210 e63c 5f3a 0f3d b844 f13c
000003b0: 7228 c73c d2fe fe3c 810d dd3c 0b8c 393d
000003c0: 06b5 d53c 9bff 2a3d d057 003d 118c 3b3d
000003d0: c15a cb3c 1b56 0e3d a0bc 243d 6f28 2e3d
000003e0: b17b 0c3d 8b86 d63c 26c6 fb3c fc95 de3c
000003f0: af2d 243d ce1a e43c a10d 2a3d a1f5 073d

fc2.weight f4 [200, 800]
-0.049293336 0.10754901 -0.012559053 -0.028930327 0.018297037 0.08192525 -0.17921065 0.043261033
0.010968488 0.13162604 -0.067733735 0.21144344 -0.16327871 0.3114226 -0.29191083 0.16344205
0.045687694 -0.0070198006 0.13136218 -0.12187484 0.21769987 -0.009396657 0.026064487 -0.06688927
0.035577826 -0.050668046 -0.091747634 -0.0873181 0.017899316 -0.0859396 -0.18862723 -0.08001392
-0.071526915 0.29379982 -0.21555494 0.036074802 -0.20291016 -0.119895995 0.10730935 0.13783051
-0.06609129 0.0059372536 -0.23679623 0.08893873 -0.28773156 0.1579467 -0.08586405 0.053435113
-0.10038455 -0.15764849 -0.07392043 -0.06258415 -0.08542808 -0.02290973 0.16434957 0.18453968
0.21996075 0.07224145 -0.04202169 -0.20079698 -0.30475304 -0.06069839 0.20770413 0.36029205
0.0024773574 -0.28794044 -0.07552564 0.095052734 -0.025935398 -0.19244562 0.28031996 0.07240042
0.002467085 -0.24458496 -0.056830868 0.08996901 0.13688345 -0.0720065 -0.06612324 0.03163676
-0.06990533 -0.14695846 0.09365659 0.066133596 -0.0461493 -0.06177156 0.10884501 -0.07719616
-0.3593653 -0.031575102 -0.1501904 0.09831682 0.09022166 -0.14768092 -0.16549057 0.12012886
0.21442157 -0.019975647 -0.049870133 0.17990443 0.10009691 0.03850667 -0.23670404 -0.46314463
-0.02183947 -0.0447295 0.09560466 -0.0081290575 0.10203395 0.06469737 -0.12348287 0.03828412
-0.16183539 -0.18485714 -0.17215756 0.06493567 0.006966243 0.12311114 0.0693172 0.2463189
-0.006858498 0.10798147 -0.040934883 -0.06628 -0.13978904 0.18230896 0.06386646 -0.07755447
-0.0551785 0.03489486 -0.262143 0.030766107 0.016720321 0.1273154 0.27924758 -0.072171226
0.33000356 -0.0267068 -0.09600875 0.05465416 -0.22981256 0.047993973 -0.05687811 0.09115914
0.07293368 -0.3431264 0.058273517 -0.100839585 0.0076391706 -0.02821329 0.10240252 -0.132622
-0.09799544 0.08129273 0.09013522 0.043216277 0.13378206 -0.1556407 -0.06279801 0.16492015
0.0092550665 -0.027009305 -0.06444282 0.17099456 -0.16987991 -0.21463893 0.16108705 0.05661795
-0.0971083 -0.04774281 0.012340667 0.23004301 0.050671566 0.085573725 0.22636159 0.19675638
-0.23345666 -0.04633551 0.28170976 0.052265603 -0.08775207 -0.06335255 0.036382824 0.13631131
-0.010001683 -0.027668007 0.116274856 0.10410973 0.02081922 -0.14773604 -0.23915969 0.12819925
0.025872715 -0.054224692 0.027330829 0.06433745 -0.07022183 -0.15257357 -0.00013369546 -0.059521142
0.12375017 0.0029449665 -0.17035484 0.14631145 0.08905228 0.01470987 0.0005631019 -0.07629895
0.046677668 -0.0005732335 0.080546185 0.0007730306 0.12942228 -0.06807583 0.057156544 -0.38665062
0.16778076 0.1774057 -0.20776978 0.09830242 -0.040420104 -0.1933876 -0.19941743 0.074504524
0.049116954 0.033837024 -0.20943566 0.17196752 -0.17762251 0.040707737 -0.22204249 0.13983373
-0.17323458 0.09088155 -0.22277163 0.07450529 0.07555034 0.052789107 -0.14914158 -0.10092751
0.04120728 0.12083842 -0.043376554 0.1646392 -0.010087365 0.06802583 -0.14233196 -0.06515661
0.17161573 0.031428117 -0.06903888 0.063289054 0.015381587 0.08541846 0.08489121 0.062806636
00000000: cfe7 49bd a842 dc3d 7cc4 4dbc 4bff ecbc
00000010: abe3 953c 6dc8 a73d ff82 37be 7b32 313d
00000020: 2cb5 333c fac8 063e fcb7 8abd a184 583e
00000030: 8932 27be c872 9f3e 5675 95be 5a5d 273e
00000040: 0523 3b3d 5b06 e6bb cf83 063e 8499 f9bd
00000050: b7ec 5e3e 70f4 19bc 3185 d53c 3efd 88bd
00000060: 0eba 113d 4c89 4fbd 2fe6 bbbd d5d3 b2bd
00000070: 96a1 923c 1a01 b0bd 7f27 41be 57de a3bd
00000080: b47c 92bd ee6c 963e 6fba 5cbe 2cc3 133d
00000090: aec7 4fbe 088c f5bd 01c5 db3d 7123 0d3e
000000a0: df5a 87bd 4b8d c23b b67a 72be 8225 b63d
000000b0: 8d51 93be c8bc 213e 7ed9 afbd c7de 5a3d
000000c0: 6a96 cdbd 9b6e 21be 9863 97bd 1e2c 80bd
000000d0: ebf4 aebd 30ad bbbc 414b 283e f8f7 3c3e
000000e0: 643d 613e 53f3 933d f01e 2cbd b99d 4dbe
000000f0: 9708 9cbe e09e 78bd 64b0 543e 3378 b83e
00000100: 295b 223b ee6c 93be 30ad 9abd 02ab c23d
00000110: 7976 d4bc 7710 45be 1986 8f3e ac46 943d
00000120: d1ae 213b 7b74 7abe 7cc7 68bd ac41 b83d
00000130: 2d2b 0c3e 2578 93bd 9f6b 87bd 8c95 013d
00000140: 872a 8fbd 477c 16be 07cf bf3d 0d71 873d
00000150: 0c07 3dbd 2d04 7dbd 22ea de3d 0519 9ebd
00000160: bbfe b7be e554 01bd 83cb 19be 545a c93d
00000170: 22c6 b83d ab39 17be 5c76 29be 1f06 f63d
00000180: 5491 5b3e f8a3 a3bc a044 4cbd de38 383e
00000190: 9cff cc3d 2cb9 1d3d 8b62 72be 4b21 edbe
000001a0: b0e8 b2bc 4836 37bd 60cc c33d bd2f 05bc
000001b0: 2df7 d03d 0e80 843d 96e4 fcbd cfcf 1c3d
000001c0: 2db8 25be 314b 3dbe 124a 30be fefc 843d
000001d0: 1545 e43b b221 fc3d 2df6 8d3d 063b 7c3e
000001e0: 40bd e0bb 6425 dd3d 56ab 27bd cfbd 87bd
000001f0: dc24 0fbe 33af 3a3e 6bcc 823d e1d4 9ebd
00000200: da02 62bd eaed 0e3d 9b37 86be 3409 fc3c
00000210: 0ef9 883c f85e 023e 8af9 8e3e 82ce 93bd
00000220: 3af6 a83e 38c8 dabc 3ca0 c4bd 0add 5f3d
00000230: fc53 6bbe 5495 443d 05f9 68bd a5b1 ba3d
00000240: 415e 953d 43ae afbe 36b0 6e3d fc84 cebd
00000250: 0252 fa3b 8f1f e7bc 6ab8 d13d 10ce 07be
00000260: d5b1 c8bd ce7c a63d d098 b83d 8d03 313d
00000270: 2afe 083e 4760 1fbe 3e9c 80bd d4e0 283e
00000280: 90a2 173c 9e42 ddbc 99fa 83bd 3319 2f3e
00000290: 00f5 2dbe 4fca 5bbe 01f4 243e 39e8 673d
000002a0: b7e0 c6bd f78d 43bd 8230 4a3c 6590 6b3e
000002b0: fd8c 4f3d 4741 af3d 55cb 673e 817a 493e
000002c0: 430f 6fbe 4eca 3dbd 433c 903e 7514 563d
000002d0: 5bb7 b3bd fbbe 81bd 2806 153d 3195 0b3e
000002e0: 19de 23bc 04a8 e2bc 8321 ee3d 7b37 d53d
000002f0: 128d aa3c 1e48 17be 47e6 74be aa46 033e
00000300: 04f3 d33c b61a 5ebd e7e4 df3c 5ac3 833d
00000310: 76d0 8fbd 3f3c 1cbe 9a30 0cb9 71cc 73bd
00000320: bb70 fd3d 5700 413b 8071 2ebe abd2 153e
00000330: 0b61 b63d ab01 713c 219d 133a a042 9cbd
00000340: 1531 3f3d 0d45 16ba 66f5 a43d 35a5 4a3a
00000350: 4687 043e 576b 8bbd fb1c 6a3d 12f7 c5be
00000360: b8ce 2b3e d7a9 353e 9ac1 54be c752 c93d
00000370: 8d8f 25bd 6607 46be 1534 4cbe d495 983d
00000380: dc2e 493d b198 0a3d 4d76 56be 4118 303e
00000390: ade2 35be 28bd 263d 1b5f 63be 9330 0f3e
000003a0: 6864 31be 1b20 ba3d 3f1e 64be 3b96 983d
000003b0: 23ba 9a3d 6439 583d 92b8 18be 15b3 cebd
000003c0: f7c8 283d 227a f73d 9dab 31bd 2e97 283e
000003d0: 7a45 25bc 2051 8b3d 78bf 11be d470 85bd
000003e0: 09bc 2f3e c5ba 003d 4264 8dbd b19d 813d
000003f0: 0d03 7c3c e0ef ae3d 71db ad3d c4a0 803d

fc2.bias f4 [200]
9.749831e-06 -3.8263256e-06 1.2768787e-05 -1.6471486e-05 -1.9916248e-05 9.074171e-06 -5.6990543e-06 -9.736303e-06
-9.708893e-06 1.6277298e-05 3.830502e-06 2.5086727e-06 -1.178222e-05 7.872537e-06 8.811342e-06 7.3105066e-06
-1.7344328e-05 4.7603254e-07 2.5074343e-05 -4.134178e-06 -8.568973e-06 1.4220076e-05 -1.2553401e-05 -1.2234988e-06
3.24649e-06 -5.244787e-06 1.4175028e-05 -1.0902932e-05 1.5841535e-05 1.5001632e-05 -3.0691222e-06 -8.7045544e-07
-4.55697e-06 -2.086547e-06 -6.6154366e-06 2.8900552e-06 -4.641588e-06 6.681531e-06 -1.7611175e-05 6.54107e-06
-4.0009094e-05 -1.1769607e-05 1.0305298e-05 4.795723e-06 -1.327475e-06 -2.7426448e-05 1.5781401e-05 -1.8135632e-05
-2.2688755e-05 1.7238985e-06 -2.1898204e-06 -1.6114727e-05 -1.5826096e-07 -1.5869247e-05 -9.4454435e-07 3.0946646e-06
-1.2993677e-05 -8.614845e-06 9.210043e-06 -3.892279e-06 2.6297272e-05 -1.2071515e-05 1.7292406e-05 -2.5015174e-06
3.113383e-06 1.3340082e-05 -9.03796e-06 2.353866e-06 -7.5243697e-06 5.076522e-06 9.13906e-06 -1.641466e-05
-1.1915495e-05 2.5982251e-06 -9.126362e-06 1.2023632e-05 -1.3087094e-05 2.2279843e-05 -1.8148934e-05 -5.585575e-08
-3.5300134e-06 4.321708e-06 -2.5910664e-05 -1.1755268e-05 -1.3450986e-05 6.3111e-06 7.80316e-06 -1.3321419e-05
-1.2471451e-05 -1.9178056e-05 -3.500314e-07 -9.346798e-06 -1.2238936e-05 6.762593e-06 -1.7444481e-05 -6.2042373e-06
8.143296e-06 -1.4812006e-05 5.4821417e-06 -3.1458499e-06 -1.7347847e-06 -6.599999e-07 -7.429525e-06 7.143091e-06
7.895801e-07 2.4688225e-06 1.011492e-05 2.4234344e-06 -1.0406611e-07 -1.8913002e-05 1.5472837e-05 1.0435134e-06
-9.603562e-06 1.0949866e-05 -6.060324e-06 -6.593066e-06 -3.1232667e-06 1.6440663e-06 4.22277e-06 1.0148017e-05
3.4085342e-06 -4.1056148e-05 5.8952287e-06 1.4510802e-05 -7.450517e-06 2.7604949e-05 1.9300158e-05 1.212125e-05
1.400225e-06 -3.5542905e-06 -1.0801463e-07 -3.1621362e-06 5.855717e-06 7.962732e-06 -5.9151585e-06 1.1906276e-05
1.7545323e-06 -5.5111177e-06 -1.21644225e-05 -6.804897e-06 -2.4359817e-05 -9.513029e-06 -9.8518e-06 -5.1876164e-06
2.0350219e-05 6.7973124e-06 -8.2193714e-07 1.4549217e-07 -2.2113502e-06 7.903566e-06 -1.3711069e-05 9.335007e-06
8.528449e-06 -2.0653599e-05 -5.34617e-06 -4.8002466e-06 -4.2301076e-06 -5.7022594e-06 -1.667775e-05 -3.113725e-06
5.2841724e-06 -1.4199994e-06 2.9993123e-05 -7.41319e-06 -2.3486571e-05 2.369934e-05 -7.6769875e-06 1.1601193e-05
-9.033772e-06 5.2083765e-06 7.5594307e-06 -8.233855e-07 1.468999e-05 -9.029493e-06 1.36240205e-05 8.881148e-06
-1.6276566e-05 -7.3424035e-06 -1.433241e-05 -3.8349217e-06 3.50256e-06 -1.105447e-05 -5.625977e-07 8.893249e-06
-3.884881e-06 -1.0832092e-05 -5.476434e-06 -3.8401613e-06 3.316073e-06 1.0322834e-06 9.641612e-07 6.6315033e-06
1.2666431e-05 -4.944518e-06 3.7304233e-06 1.221986e-05 2.7005026e-06 1.6933109e-05 -3.2491405e-06 -1.1597131e-05
00000000: 3593 2337 e363 80b6 8639 5637 3f2c 8ab7
00000010: d111 a7b7 453d 1837 813a bfb6 1a59 23b7
00000020: 61e3 22b7 3b8b 8837 c387 8036 ab5a 2836
00000030: 40ac 45b7 4a14 0437 6dd4 1337 c64c f536
00000040: a97e 91b7 6a91 ff34 be56 d237 52b8 8ab6
00000050: 75c3 0fb7 c392 6e37 729c 52b7 1937 a4b5
00000060: 46de 5936 61fc afb6 48d1 6d37 bdeb 36b7
00000070: 70e3 8437 85af 7b37 1ef7 4db6 3ea9 69b5
00000080: 13e8 98b6 9b06 0cb6 2bfa ddb6 c5f2 4136
00000090: f0be 9bb6 ea31 e036 b6bb 93b7 5d7b db36
000000a0: 70cf 27b8 1476 45b7 ebe4 2c37 f2ea a036
000000b0: b22b b2b5 d911 e6b7 4d62 8437 f921 98b7
000000c0: bb53 beb7 b460 e735 d4f4 12b6 1d2e 87b7
000000d0: 71ee 29b4 f31e 85b7 988c 7db5 efad 4f36
000000e0: 6bff 59b7 7a88 10b7 d584 1a37 6c9a 82b6
000000f0: f698 dc37 c386 4ab7 290f 9137 bedf 27b6
00000100: 83ef 5036 37cf 5f37 bea1 17b7 1cf7 1d36
00000110: d879 fcb6 fe56 aa36 f753 1937 37b2 89b7
00000120: a9e8 47b7 2b5d 2e36 6d1d 19b7 1bb9 4937
00000130: a490 5bb7 99e5 ba37 8a3e 98b7 0ce6 6fb3
00000140: 2be5 6cb6 3003 9136 ba5a d9b7 7e38 45b7
00000150: 8cab 61b7 f0c3 d336 51ea 0237 0f7f 5fb7
00000160: 793c 51b7 90e0 a0b7 f3eb bbb4 31d0 1cb7
00000170: d455 4db7 3bea e236 bd55 92b7 fe2d d0b6
00000180: 319f 0837 1581 78b7 3df3 b736 4a1d 53b6
00000190: c0d6 e8b5 d92a 31b5 224b f9b6 afae ef36
000001a0: 88f3 5335 0cae 2536 40b3 2937 49a2 2236
000001b0: f37a dfb3 5da7 9eb7 aacb 8137 d90e 8c35
000001c0: fc1e 21b7 51b5 3737 c959 cbb6 013a ddb6
000001d0: 5099 51b6 b0a9 dc35 51b1 8d36 6741 2a37
000001e0: 2cbe 6436 b433 2cb8 a1cf c536 6c73 7337
000001f0: 74ff f9b6 2d91 e737 c6e6 a137 5f5c 4b37
00000200: 5def bb35 3f86 6eb6 acf5 e7b3 1635 54b6
00000210: 3a7c c436 ac97 0537 d37a c6b6 11c1 4737
00000220: 457d eb35 24ec b8b6 cc15 4cb7 9f55 e4b6
00000230: 4f58 ccb7 269a 1fb7 2949 25b7 4911 aeb6
00000240: c3b5 aa37 7814 e436 17a3 5cb5 9538 1c34
00000250: b566 14b6 8f99 0437 9808 66b7 8d9d 1c37
00000260: 6915 0f37 4441 adb7 4063 b3b6 ce11 a1b6
00000270: 59f0 8db6 0956 bfb6 32e7 8bb7 63f5 50b6
00000280: b24e b136 cf96 beb5 be99 fb37 d1be f8b6
00000290: 0705 c5b7 f2cd c637 69cc 00b7 bfa2 4237
000002a0: c18f 17b7 9dc3 ae36 04a7 fd36 9f06 5db5
000002b0: 0775 7637 617d 17b7 b992 6437 3d00 1537
000002c0: a989 88b7 c45e f6b6 3b75 70b7 baad 80b6
000002d0: 860d 6b36 9676 39b7 6b05 17b5 3734 1537
000002e0: e05a 82b6 7bbb 35b7 36c2 b7b6 bcda 80b6
000002f0: b389 5e36 fd8c 8a35 5468 8135 2e84 de36
00000300: e881 5437 16e9 a5b6 2f58 7a36 e603 4d37
00000310: 483a 3536 930b 8e37 cf0b 5ab6 4c91 42b7
