models/mlp_classifier_after_encoder_weights_.pth (torch, 865982 bytes, 14 tensors)

fc1.weight f4 [800, 60]
0	0x3d90c6c9	0.07069165
1	0x3df82980	0.121172905
2	0x3e2956c7	0.16537009
3	0xbdc60c01	-0.09670258
4	0xbc94024e	-0.018067505
5	0xbc898ca3	-0.016790694
6	0x3d5876ea	0.05284778
7	0xbb12607d	-0.0022335344
8	0xbdcf4440	-0.101204395
9	0x3e0441b1	0.12915684
10	0x3cbce8ed	0.023060286
11	0xbe0f9f41	-0.14025594
12	0x3d94937b	0.07254692
13	0x3e07c1b7	0.1325749
14	0x3d5fd223	0.05464376
15	0x3e688793	0.22707967
16	0x3d7a2877	0.061073747
17	0xbe290e60	-0.1650939
18	0xbe3be19b	-0.1834778
19	0xbd8a3ce3	-0.067498945
20	0x3d1e76f9	0.03868768
21	0xbdb03171	-0.0860318
22	0x3be59b7c	0.0070070606
23	0x3d59abd3	0.05314238
24	0x3c8debd1	0.01732436
25	0x3da781c1	0.081790455
26	0x3e573ec3	0.21020035
27	0xbc145f3c	-0.009055909
28	0x3d77feff	0.060545918
29	0x3c00dc84	0.007865075
30	0xbccf4165	-0.025299737
31	0xbdbf5aa5	-0.09343461
32	0xbcdecd0d	-0.027197385
33	0x3d804cb9	0.06264634
34	0x3df4a7b6	0.11946051
35	0xbce95e65	-0.028487394
36	0xbe19f846	-0.15036115
37	0x3cdb34a5	0.026758501
38	0xbb90e8a9	-0.0044222665
39	0xbd8504c9	-0.06495053
40	0xbd6989e5	-0.057016272
41	0x3e006fbd	0.12542625
42	0xbb7fa85e	-0.0039010267
43	0x3e226ba0	0.15861368
44	0xbe059331	-0.1304443
45	0xbd6e28b5	-0.05814429
46	0x3c7f8890	0.015596524
47	0xbde9adb2	-0.11410083
48	0x3c925d53	0.017866766
49	0x3c2dcc1a	0.010607744
50	0x3df032b0	0.11728418
51	0x3c9862ed	0.018601859
52	0xbd7aaa4e	-0.06119757
53	0x3ca23f1d	0.019805485
54	0xbd6f6a63	-0.058451068
55	0xbd674784	-0.056464687
56	0xbe00f5c1	-0.12593748
57	0xbc3274c6	-0.010892099
58	0x3d5294db	0.05141149
59	0xbdf0878f	-0.11744606
60	0x3dff629f	0.12469982
61	0xbd94f5d9	-0.07273454
62	0x3d7f660f	0.06235319
63	0x3b5f00d6	0.0034027598
64	0x3e0fceed	0.1404378
65	0x3dcc2e79	0.099698015
66	0xbb553f26	-0.003253886
67	0x3ca0c383	0.019624477
68	0xbe3e49ee	-0.1858289
69	0xbbe71843	-0.007052453
70	0x3d3bc945	0.045846242
71	0x3ddcdf76	0.10784809
72	0x3d26de44	0.040739313
73	0xbd1624f4	-0.036656335
74	0x3c596a3b	0.013269956
75	0xbe01ff5f	-0.12695073
76	0xbcea7a07	-0.02862264
77	0x3d1a8312	0.037722655
78	0x3c692be5	0.014231657
79	0x3e11ad09	0.14226164
80	0x3ccc3ad7	0.0249304
81	0x3ceacf34	0.028663255
82	0xbbea7d7f	-0.0071560736
83	0xbd469d01	-0.048489574
84	0x3c8bed89	0.017081039
85	0x3bfb1dcb	0.0076634637
86	0x3e4a0703	0.19729237
87	0x3d21c9ca	0.03949908
88	0xbdaa83a4	-0.0832589
89	0x3de4b346	0.11167006
90	0x3cf9c8f3	0.030491328
91	0x3d7cf66b	0.06175844
92	0xbe1b9419	-0.15193214
93	0xbda95508	-0.082681715
94	0x3d40d266	0.04707565
95	0xbe97edb8	-0.29673553
96	0x3df938c7	0.121690325
97	0xbd86362e	-0.06553303
98	0x3d8f9090	0.07009995
99	0xbc2fb175	-0.010723461
100	0x3d530559	0.05151877
101	0xbdc240b3	-0.09484997
102	0x3de8ccbd	0.11367176
103	0x3e0fad96	0.14031062
104	0x3c3125df	0.010812252
105	0xbc80d34f	-0.01572576
106	0xbe2ff9b2	-0.17185095
107	0x3d33bfca	0.043884076
108	0x3e1925c1	0.14955808
109	0x3ddd140f	0.107948415
110	0x3df3562f	0.118816726
111	0xbc9353c3	-0.017984277
112	0x3dd6e949	0.10493714
113	0x3da8f4eb	0.082498394
114	0x3cd77061	0.026298704
115	0x3d9d6f5d	0.076872565
116	0xbd3337a9	-0.043754254
117	0x3d15f70c	0.036612555
118	0x3d5e38c6	0.054253362
119	0x3e1713c6	0.14753637
120	0xbce5f8b5	-0.028072694
121	0x3e10845e	0.14112994
122	0xbca89bde	-0.020582136
123	0x3db760e0	0.08954024
124	0x3cacd505	0.02109767
125	0x3dcd793f	0.100328915
126	0xbdafdb16	-0.08586709
127	0x3da298b3	0.07939281
128	0xbdd11d33	-0.102106474
129	0x3e265b2a	0.16245714
130	0xbe02c9d7	-0.12772308
131	0x3dab6fca	0.083709314
132	0x3daa8c3b	0.08327528
133	0x3d0c36c3	0.034231912
134	0xbe307100	-0.17230606
135	0x3dc0a5cc	0.09406623
136	0xbda7da7a	-0.08195968
137	0x3d81a580	0.06330395
138	0xbe2a8f48	-0.1665622
139	0xbdf9bb37	-0.121939115
140	0x3d41126f	0.04713672
141	0x3d1c9286	0.038225673
142	0xbe273ebe	-0.16332528
143	0x3d0a0b57	0.03370222
144	0x3dcff9f9	0.101551004
145	0x3e5c56ee	0.21517536
146	0x3dc7914f	0.09744512
147	0xbdb98432	-0.090584174
148	0x3d7639d9	0.06011376
149	0x3e0d5cd7	0.13804947
150	0xbc1bba83	-0.009504917
151	0xbd085b1d	-0.033290017
152	0x3d9daab0	0.07698572
153	0xbd977cf3	-0.07396879
154	0xbccc2b10	-0.024922878
155	0xbda26923	-0.079302095
156	0x3e0492b2	0.12946585
157	0x3e38f225	0.18061121
158	0x3cb7c58f	0.02243307
159	0xbc43b38f	-0.011944666
160	0xbbb20fc6	-0.0054340092
161	0xbe39a3d1	-0.18128897
162	0x3cdd8507	0.027040971
163	0xbe143499	-0.1447319
164	0x3c034a15	0.008013268
165	0x3cfb6493	0.030687606
166	0xbd671b5e	-0.056422584
167	0xbd040dcf	-0.03223973
168	0xbd8f48a0	-0.06996274
169	0xbd303f1a	-0.04302893
170	0x3d4bcc92	0.04975564
171	0xbd056117	-0.032563295
172	0xbd918bbf	-0.071067326
173	0xb93f07c8	-0.00018218078
174	0xbdc62697	-0.09675329
175	0x3cee5cc0	0.029096961
176	0xbaaec31b	-0.0013333292
177	0xbac169b8	-0.0014756238
178	0x3cc6f45a	0.024286438
179	0x3ceea1d9	0.02912991
180	0x3dd52a3e	0.10408448
181	0x3cdfc4f2	0.02731559
182	0x3e635834	0.22201616
183	0x3d30f240	0.043199778
184	0xbd6070cf	-0.054795083
185	0x3df85ce3	0.12127092
186	0xbddb285f	-0.107010596
187	0x3e3e5df2	0.18590525
188	0xbc2fe556	-0.01073583
189	0xbd4ff0dc	-0.05076681
190	0x3e2ff712	0.17184094
191	0x3e2abce7	0.16673623
192	0xbd89c8ff	-0.0672779
193	0x3c376eba	0.011195833
194	0x3da30b31	0.07961119
195	0xbd8c7590	-0.06858361
196	0x3d91b991	0.07115472
197	0xbcf91742	-0.030406598
198	0xbe04086c	-0.12893838
199	0x3d2b3efb	0.04180811
200	0x3dc96937	0.09834521
201	0xbdd8f456	-0.105934784
202	0x3e00e4bf	0.1258726
203	0x3dd16161	0.10223652
204	0xbd4d151e	-0.050068967
205	0xbdf9957a	-0.121867135
206	0x3d5ae37f	0.053439613
207	0xbd628627	-0.05530372
208	0xbcfaddd4	-0.030623354
209	0x3d1ccd57	0.038281765
210	0x3c8dcacc	0.017308615
211	0x3dd621b6	0.104556486
212	0xbda5f718	-0.0810377
213	0x3d07dfee	0.03317254
214	0x3c26cc7a	0.010180587
215	0xbc1298c5	-0.008947556
216	0x3e00ff1a	0.12597314
217	0xbd811984	-0.06303695
218	0xbd0156e7	-0.031577017
219	0x3de900a4	0.11377075
220	0x3e1fbacc	0.15598601
221	0xbd69ce2c	-0.057081386
222	0xbd9b6272	-0.07587136
223	0xbe54b866	-0.20773467
224	0xbdfebde4	-0.124385625
225	0x3d90b96b	0.07066616
226	0x3d0fc24b	0.0350974
227	0x3c93a298	0.018021867
228	0xbd61cb3f	-0.05512547
229	0xbd493655	-0.04912408
230	0x3c33615c	0.010948505
231	0xbd2ff52e	-0.04295843
232	0x3d824440	0.06360674
233	0xbdebb1ed	-0.11508546
234	0x3d004d8e	0.031323962
235	0xbc6070aa	-0.013698736
236	0xbe6da47a	-0.23207274
237	0x3d9ffdd1	0.078120835
238	0x3cf0d5cb	0.02939882
239	0xbe37fb42	-0.17966941
240	0xbe18812e	-0.14893028
241	0x3d4f85d3	0.050664734
242	0x3e289691	0.16463687
243	0x3db89704	0.09013179
244	0xbdbdaf0e	-0.09261905
245	0xbdecead7	-0.1156823
246	0x3d3c493b	0.045968276
247	0xbde235cf	-0.110454194
248	0x3d30d229	0.043169174
249	0xbe13f913	-0.14450483
250	0xbdbd9eb5	-0.092587866
251	0xbbcb35f0	-0.006201498
252	0x3da8d0a8	0.08242923
253	0xbb0ca5fa	-0.0021461234
254	0xbbc9fc90	-0.006164141
255	0xbd8919e5	-0.06694392

fc1.bias f4 [800]
0	0xb5b6cd45	-1.3619798e-06
1	0x33b689be	8.5000906e-08
2	0x34c2c679	3.6279724e-07
3	0x355cec30	8.2300085e-07
4	0x359c315a	1.1637269e-06
5	0xb5355e84	-6.756529e-07
6	0xb5278afb	-6.241459e-07
7	0x354a9e0e	7.5480864e-07
8	0xb4a8230e	-3.1317944e-07
9	0xb630a361	-2.6321143e-06
10	0xb4d48f7d	-3.959248e-07
11	0x35417c53	7.207902e-07
12	0xb4e1b735	-4.2042817e-07
13	0xb58761f7	-1.0086795e-06
14	0x349c0a10	2.9064586e-07
15	0xb58417e7	-9.841723e-07
16	0xb3adb191	-8.0882394e-08
17	0x31be9023	5.5461142e-09
18	0x365c4ef2	3.2828507e-06
19	0xb638bae8	-2.752693e-06
20	0xb53ac2d5	-6.957392e-07
21	0x3451411e	1.9488331e-07
22	0xb5906e14	-1.0760873e-06
23	0x31a5bb56	4.8234297e-09
24	0xb516ed7d	-5.6224945e-07
25	0x364bdc08	3.0377432e-06
26	0xb55ad11c	-8.151562e-07
27	0xb4b22b9b	-3.318681e-07
28	0x36062ae4	1.9992522e-06
29	0xb580ad44	-9.58717e-07
30	0x35246f6b	6.1256895e-07
31	0xb60ce3ce	-2.0994225e-06
32	0xb4bd2aab	-3.5235038e-07
33	0x3532c543	6.659722e-07
34	0xb2a97eac	-1.9731793e-08
35	0x361dcb62	2.3513207e-06
36	0xb53fda91	-7.14711e-07
37	0xb4488b29	-1.8677078e-07
38	0x35c96411	1.500479e-06
39	0x35b9782b	1.3818548e-06
40	0xb58c7841	-1.0465811e-06
41	0xb595ffa6	-1.1175769e-06
42	0xb433d41d	-1.674784e-07
43	0xb432a9d2	-1.6639322e-07
44	0xb5a838cb	-1.2533504e-06
45	0x3683d027	3.9283364e-06
46	0x35930410	1.0953536e-06
47	0xb6084210	-2.0304033e-06
48	0x33c79e0f	9.29541e-08
49	0xb49fee47	-2.9789427e-07
50	0xb526edec	-6.218604e-07
51	0xb4c14576	-3.599959e-07
52	0xb4357e46	-1.6902877e-07
53	0xb618047b	-2.2652373e-06
54	0x36361186	2.7130313e-06
55	0x358a642f	1.0310958e-06
56	0x359aed7e	1.1543013e-06
57	0x35822a5a	9.698081e-07
58	0xb59a6f1d	-1.1506232e-06
59	0x3608a936	2.0364073e-06
60	0xb635adba	-2.7072224e-06
61	0xb59272d7	-1.091127e-06
62	0xb5fd0ad2	-1.8853118e-06
63	0x34af32bd	3.2633207e-07
64	0x35247550	6.1265473e-07
65	0x34f5d692	4.5790927e-07
66	0xb6ad83e6	-5.1711568e-06
67	0x3301d9ca	3.023323e-08
68	0xb566b7cb	-8.594913e-07
69	0x35d25d55	1.5673382e-06
70	0xb5ba9e96	-1.3904234e-06
71	0xb2f3b776	-2.8372352e-08
72	0xb5703a37	-8.949168e-07
73	0xb5d4b717	-1.5848517e-06
74	0xb442b0ee	-1.8132025e-07
75	0xb50b4856	-5.18868e-07
76	0x3520cd6b	5.990357e-07
77	0xb2168440	-8.761219e-09
78	0xb59f7981	-1.1881785e-06
79	0xb515099d	-5.5520815e-07
80	0x356e7d57	8.88443e-07
81	0x328b8946	1.6244154e-08
82	0x352e38e9	6.4902866e-07
83	0xb65b57cb	-3.2684645e-06
84	0x3622637a	2.4197784e-06
85	0x34bfe7a4	3.5745063e-07
86	0xb41ce56a	-1.4612093e-07
87	0x3437484b	1.7069503e-07
88	0xb5813cb9	-9.628922e-07
89	0xb684483f	-3.942317e-06
90	0xb5a9d379	-1.2653028e-06
91	0x354bafd1	7.587924e-07
92	0x350e6afb	5.30548e-07
93	0xb4e49637	-4.2577605e-07
94	0x361dc264	2.3507973e-06
95	0xb5693ebb	-8.689055e-07
96	0xb44d66b2	-1.9129473e-07
97	0x3505a2ef	4.978346e-07
98	0xb32d1bcb	-4.030498e-08
99	0x33b81bbf	8.573215e-08
100	0xb4176027	-1.4097951e-07
101	0x35d2df89	1.5711277e-06
102	0xb6333cb2	-2.6708408e-06
103	0xb63673d0	-2.7187525e-06
104	0xb57d872d	-9.444655e-07
105	0x33f21c2d	1.1274128e-07
106	0xb5b39cfc	-1.3382228e-06
107	0x35ae462a	1.2984431e-06
108	0x34a38856	3.0460313e-07
109	0xb4c1afa3	-3.6076844e-07
110	0xb523d7fa	-6.103652e-07
111	0x350f69f8	5.3425856e-07
112	0xb6195bd7	-2.2852234e-06
113	0x360522cb	1.9838797e-06
114	0x35c3bd78	1.4583775e-06
115	0xb677b7a6	-3.6912766e-06
116	0x34c51cf0	3.6715164e-07
117	0xb62c8437	-2.5706956e-06
118	0xb5473701	-7.421332e-07
119	0x35621647	8.422398e-07
120	0xb4f06bda	-4.4781956e-07
121	0xb2d3932b	-2.4630557e-08
122	0x331d6321	3.664457e-08
123	0x35a0de84	1.198569e-06
124	0x35c68ed8	1.4793723e-06
125	0xb603c96a	-1.963776e-06
126	0xb4771c00	-2.3013854e-07
127	0xb345011f	-4.5868656e-08
128	0x361ffdb5	2.3840523e-06
129	0xb3e7ea42	-1.0799387e-07
130	0x34957b2b	2.784303e-07
131	0x33c05855	8.956764e-08
132	0x3698b993	4.5515567e-06
133	0x34f6e87a	4.599022e-07
134	0x34c11809	3.596654e-07
135	0xb63e56a7	-2.8362645e-06
136	0x348929a0	2.5548525e-07
137	0xb4d79b38	-4.0159807e-07
138	0x3498df80	2.8474824e-07
139	0x365fce2b	3.3349595e-06
140	0x3401e3b1	1.2096895e-07
141	0x350690e7	5.012975e-07
142	0x33d30acf	9.827419e-08
143	0xb5355220	-6.754726e-07
144	0xb4f449ab	-4.5502142e-07
145	0xb51045e7	-5.37459e-07
146	0x352a4581	6.3431077e-07
147	0x35b316c8	1.334317e-06
148	0x34845813	2.4650998e-07
149	0x35f114a2	1.7961904e-06
150	0xb4970a67	-2.813351e-07
151	0x34f2dc62	4.5236362e-07
152	0xb38e32cc	-6.62163e-08
153	0x362e873c	2.6006737e-06
154	0x35bba9dc	1.3982021e-06
155	0xb216776c	-8.7583025e-09
156	0x3533f2bd	6.7035927e-07
157	0x357409b3	9.09112e-07
158	0xb3aab74d	-7.949584e-08
159	0x35080025	5.066416e-07
160	0xb56e95ca	-8.887988e-07
161	0x3567e364	8.63851e-07
162	0xb557155e	-8.0124835e-07
163	0x3676ffff	3.6805866e-06
164	0xb617114e	-2.2510826e-06
165	0xb588c5ad	-1.0190321e-06
166	0x359c99f8	1.1667717e-06
167	0x3529e6d9	6.3293334e-07
168	0x34473595	1.8552812e-07
169	0x347d59d3	2.3595139e-07
170	0xb500c23d	-4.796637e-07
171	0xb5984e3c	-1.1347652e-06
172	0xb5132d58	-5.482775e-07
173	0x36331211	2.6683595e-06
174	0x35b13f96	1.3206034e-06
175	0xb4c79030	-3.717155e-07
176	0x32868068	1.5658046e-08
177	0xb4b5d21e	-3.3866758e-07
178	0x35a5d1b8	1.2354494e-06
179	0x304dff2b	7.494118e-10
180	0xb59652db	-1.1199985e-06
181	0xb45a1eea	-2.0314079e-07
182	0x36207572	2.391022e-06
183	0xb628f791	-2.5178053e-06
184	0xb482c283	-2.4355913e-07
185	0x34ad3975	3.2265567e-07
186	0xb42f9db1	-1.6355513e-07
187	0x34e61bc1	4.2861032e-07
188	0xb3a67fe8	-7.7532434e-08
189	0xb578714d	-9.2552074e-07
190	0x36110c07	2.1613685e-06
191	0xb5fae6c2	-1.8693611e-06
192	0x35c50511	1.4679118e-06
193	0x36100d4b	2.146541e-06
194	0x359b76e7	1.1583005e-06
195	0x365a0305	3.248629e-06
196	0x35c3dced	1.459293e-06
197	0x35b1d13a	1.3248421e-06
198	0xb4bb2228	-3.4856316e-07
199	0xb4c0ca27	-3.5909872e-07
200	0x354d2dcd	7.64351e-07
201	0xb69eab13	-4.7286826e-06
202	0xb4b66036	-3.3970144e-07
203	0xb512d41a	-5.4697887e-07
204	0x34e55c52	4.2721746e-07
205	0xb3e734f1	-1.0766406e-07
206	0xb4afed8d	-3.276913e-07
207	0x3618596f	2.2701822e-06
208	0x35a36098	1.2172559e-06
209	0x34989a55	2.8424498e-07
210	0xb4290f8e	-1.574501e-07
211	0x358e51dd	1.060365e-06
212	0xb5503fde	-7.757898e-07
213	0x349e1aec	2.9449382e-07
214	0x3517808b	5.643894e-07
215	0x35087c6f	5.084502e-07
216	0xb5c9a244	-1.5022893e-06
217	0xb50027ee	-4.774182e-07
218	0x3426e0e7	1.5541774e-07
219	0xb613300d	-2.1932676e-06
220	0xb590080a	-1.0731176e-06
221	0xb3e62352	-1.0716634e-07
222	0x35fe8312	1.8962621e-06
223	0xb4e45dad	-4.2536468e-07
224	0x360e01c6	2.1160681e-06
225	0x3601d761	1.9347865e-06
226	0xb4af00cb	-3.2596867e-07
227	0xb4dc1886	-4.0996036e-07
228	0xb4ae119c	-3.2422838e-07
229	0xb5552e87	-7.941639e-07
230	0xb635afcb	-2.7073427e-06
231	0xb63103fd	-2.6377377e-06
232	0xb61f94c0	-2.377943e-06
233	0xb68f23ce	-4.2659003e-06
234	0xb390c0db	-6.740603e-08
235	0xb481c1fd	-2.4169267e-07
236	0x34aa681d	3.174072e-07
237	0x35e475e5	1.7021636e-06
238	0x3466f173	2.1508258e-07
239	0xb3d7b88b	-1.0045286e-07
240	0xb3d64364	-9.97741e-08
241	0xb531f5ec	-6.62955e-07
242	0xb528bde1	-6.286119e-07
243	0xb60cfdc9	-2.1009348e-06
244	0xb4919606	-2.711751e-07
245	0x33edab2a	1.1067307e-07
246	0xb290997f	-1.6833608e-08
247	0xb65e2f3c	-3.3108072e-06
248	0xb604b3a5	-1.97741e-06
249	0x34b38bc6	3.3443047e-07
250	0xb3357a2a	-4.2253454e-08
251	0xb535a9ee	-6.7675035e-07
252	0xb540521c	-7.164506e-07
253	0xb5165d4b	-5.6015114e-07
254	0x36129e92	2.1847995e-06
255	0x361bb70d	2.320335e-06

bn1.weight f4 [800]
0	0x3ede49f7	0.43415806
1	0x3f075788	0.5286794
2	0x3eebb0f2	0.46033436
3	0x3f0a1ab5	0.53947
4	0x3eccb5cd	0.39982453
5	0x3ef1c70c	0.47222173
6	0x3f03bd33	0.5146057
7	0x3efdc13a	0.49561483
8	0x3ee4f71e	0.44719785
9	0x3f08f716	0.53502023
10	0x3f2e2bc9	0.6803556
11	0x3f06ecf1	0.52705294
12	0x3ef985f0	0.48735
13	0x3eb03b3c	0.34420192
14	0x3ee2b3d0	0.4427781
15	0x3f220737	0.6329226
16	0x3ec477ad	0.38372555
17	0x3de723d3	0.1128613
18	0x3f494b9c	0.78630996
19	0x3f3932ea	0.72343314
20	0x3ed18d26	0.40928
21	0x3ef24dfe	0.47325128
22	0x3f0c6770	0.54845333
23	0x3e360427	0.17775021
24	0x3ef78dda	0.48350412
25	0x3efd2f7d	0.49450293
26	0x3eac6dd3	0.3367754
27	0x3e9ce5b2	0.30643994
28	0x3f154bc8	0.5831876
29	0x3e857555	0.2606608
30	0x3f5a7e6b	0.8534915
31	0x3f368e2c	0.7131069
32	0x3f250b73	0.64470595
33	0x3f58601f	0.8452167
34	0x3e3536d1	0.17696692
35	0x3f24ad99	0.6432739
36	0x3eb72fed	0.35778752
37	0x3eb6e7cc	0.35723722
38	0x3ec2ba1e	0.3803262
39	0x3ee96cf7	0.45590946
40	0x3f10fbd1	0.5663424
41	0x3f08fb0d	0.53508073
42	0x3eed7a8e	0.46382564
43	0x3e8c206f	0.27368495
44	0x3f008db4	0.5021622
45	0x3ef77871	0.48334077
46	0x3f099fae	0.53759277
47	0x3f1549de	0.5831584
48	0x3ee98db4	0.45615923
49	0x3ed532d5	0.41640344
50	0x3ed6d7d4	0.4196154
51	0x3ee47b7a	0.44625455
52	0x3eb1dadc	0.3473729
53	0x3efc120d	0.49232522
54	0x3ebd0888	0.3692057
55	0x3f32895a	0.6974083
56	0x3f072924	0.5279715
57	0x3f0dbdf7	0.5536799
58	0x3f08afc3	0.5339319
59	0x3f038d02	0.51387036
60	0x3f20a620	0.62753487
61	0x3ef3879d	0.47564402
62	0x3ecea63c	0.40361202
63	0x3ef7b6c0	0.48381615
64	0x3f17270d	0.5904396
65	0x3ee8748e	0.45401424
66	0x3f11e847	0.5699505
67	0x3f17d87c	0.59314704
68	0x3f209418	0.62725973
69	0x3f0c6ac4	0.5485041
70	0x3e80cac9	0.25154713
71	0x3de4556f	0.11149108
72	0x3ee52e49	0.44761875
73	0x3ee91927	0.45527002
74	0x3effba1e	0.49946684
75	0x3efa57c8	0.48895097
76	0x3f0f0b74	0.5587685
77	0x3ece2ac3	0.40267
78	0x3f2b3eb6	0.66892564
79	0x3f19e119	0.60109097
80	0x3ed21d91	0.41038182
81	0x3e3edb07	0.1863824
82	0x3f0bdfdb	0.5463845
83	0x3f15282b	0.58264416
84	0x3f27dab6	0.655681
85	0x3eeccf27	0.46251795
86	0x3eba1a2d	0.36348096
87	0x3e00c695	0.12575753
88	0x3ef3d10a	0.47620422
89	0x3f1675f2	0.5877372
90	0x3f198629	0.5997034
91	0x3f035d6b	0.5131442
92	0x3ed65ec8	0.41869187
93	0x3ed97dec	0.42478883
94	0x3f1f2b40	0.6217537
95	0x3eac4c97	0.33652183
96	0x3ed13bc1	0.408659
97	0x3ea8608a	0.32886153
98	0x3ef8fc73	0.48630103
99	0x3e952b0b	0.29134402
100	0x3ed52461	0.41629317
101	0x3f1dc769	0.616324
102	0x3f0ce3d1	0.5503512
103	0x3f1105a9	0.5664926
104	0x3ebdd3f9	0.37075785
105	0x3deeb55c	0.11655685
106	0x3f03e190	0.51516056
107	0x3f1222c3	0.5708429
108	0x3eb59308	0.35463738
109	0x3f0564c6	0.52106893
110	0x3ed9b31f	0.4251947
111	0x3ee20117	0.44141456
112	0x3f183b3a	0.5946537
113	0x3f264dd0	0.6496248
114	0x3ef3b47a	0.4759863
115	0x3f17fe02	0.5937196
116	0x3e453865	0.19259794
117	0x3f13bab1	0.57706743
118	0x3f0219bd	0.50820524
119	0x3f093abb	0.5360524
120	0x3ef73ae6	0.48287123
121	0x3dea93cf	0.114539735
122	0x3ead66b5	0.33867422
123	0x3f13b612	0.5769969
124	0x3ed3a68c	0.41338003
125	0x3f215e63	0.6303465
126	0x3efa199e	0.4884767
127	0x3e84ac7c	0.25912845
128	0x3f0e6bb3	0.55633086
129	0x3f029be4	0.5101912
130	0x3eb6e49c	0.3572129
131	0x3f01990e	0.5062417
132	0x3f1db7c7	0.61608547
133	0x3e60b5eb	0.21944396
134	0x3f1a58e6	0.602919
135	0x3f17f093	0.5935146
136	0x3ecb7f09	0.39745358
137	0x3ef521f0	0.47877455
138	0x3ebaa0d2	0.3645082
139	0x3ef82a96	0.4846999
140	0x3edf5cc6	0.43625468
141	0x3f18ec56	0.5973562
142	0x3e8b9c78	0.27267814
143	0x3f11be11	0.56930643
144	0x3f0c6f08	0.5485692
145	0x3f1dd2a7	0.61649555
146	0x3e64f132	0.22357634
147	0x3ec0793f	0.37592503
148	0x3eb10df5	0.3458096
149	0x3f066f33	0.52513427
150	0x3f2cfb28	0.67570734
151	0x3ee55da3	0.44798002
152	0x3ee7e3d0	0.45290995
153	0x3f0d7c8c	0.5526817
154	0x3f08ca4d	0.53433686
155	0x3d86a24a	0.06573923
156	0x3ed720e8	0.42017293
157	0x3ec2e373	0.38064155
158	0x3e9d762a	0.30754215
159	0x3eb33cf4	0.3500744
160	0x3eebdb50	0.4606576
161	0x3f0a04b0	0.539134
162	0x3ec7244c	0.3889488
163	0x3f1be748	0.6089978
164	0x3f00f401	0.5037232
165	0x3ecac32c	0.3960203
166	0x3eda0560	0.42582226
167	0x3f1843b4	0.59478307
168	0x3ea0e05e	0.3142118
169	0x3e2ddc79	0.16978635
170	0x3ed0e8f8	0.4080274
171	0x3f073a91	0.5282374
172	0x3ef679d3	0.4813982
173	0x3f1410b3	0.5783798
174	0x3f12f70d	0.5740822
175	0x3f082adf	0.53190416
176	0x3e11b4e5	0.14229162
177	0x3f02d89d	0.51111776
178	0x3f286e8d	0.6579369
179	0x3e974a83	0.29549035
180	0x3f091e6c	0.53562045
181	0x3ecca7f6	0.39971894
182	0x3ead0b91	0.33797887
183	0x3f0e5693	0.5560085
184	0x3f217bc5	0.6307948
185	0x3e9da972	0.3079334
186	0x3e90e4fb	0.28299698
187	0x3ef353d6	0.475249
188	0x3ec24749	0.3794501
189	0x3f2b0aa1	0.66813093
190	0x3f1fe71a	0.6246201
191	0x3ed31af9	0.41231516
192	0x3f133707	0.5750584
193	0x3f20aae0	0.62760735
194	0x3e79c48b	0.24391381
195	0x3f195836	0.59900224
196	0x3eab2075	0.334232
197	0x3eb6d0fc	0.35706317
198	0x3edd8517	0.43265602
199	0x3eb9e49c	0.36307228
200	0x3f143223	0.57889
201	0x3edd5012	0.4322515
202	0x3e8508a5	0.25983158
203	0x3f040a21	0.51577955
204	0x3e822573	0.25419196
205	0x3ecd4532	0.40091854
206	0x3e8328c3	0.25617036
207	0x3f263772	0.6492835
208	0x3f069184	0.5256579
209	0x3ef1f880	0.47259903
210	0x3e8c701b	0.2742928
211	0x3ec0950b	0.3761371
212	0x3edd56da	0.43230325
213	0x3ef84f9c	0.48498237
214	0x3e872be1	0.26400664
215	0x3f061d79	0.5238872
216	0x3f174a71	0.59097964
217	0x3f344fef	0.7043447
218	0x3e9cbe07	0.3061373
219	0x3ed50884	0.4160806
220	0x3eca98c9	0.3956969
221	0x3ece0905	0.40241256
222	0x3eaf6413	0.34256038
223	0x3ea3f290	0.32020998
224	0x3f047079	0.5173412
225	0x3ef1b560	0.4720869
226	0x3ec0db8c	0.376675
227	0x3e8b98e6	0.2726509
228	0x3ef0e188	0.47047067
229	0x3e58f019	0.2118534
230	0x3f31f80f	0.6951913
231	0x3eca8379	0.3955343
232	0x3f20e40e	0.62847984
233	0x3f192152	0.5981647
234	0x3efb9d4a	0.4914344
235	0x3ec0fe23	0.3769389
236	0x3edda77c	0.43291843
237	0x3ed80bed	0.421966
238	0x3f1c1631	0.6097136
239	0x3e88f599	0.26749876
240	0x3ef36559	0.4753826
241	0x3f17f602	0.59359753
242	0x3ef49916	0.47773045
243	0x3ed05e49	0.40696934
244	0x3f0ec225	0.5576499
245	0x3ee4828b	0.44630846
246	0x3ef2d487	0.4742777
247	0x3f0a47b2	0.5401565
248	0x3edb5d9c	0.42844856
249	0x3eca615a	0.39527398
250	0x3e223f6e	0.15844509
251	0x3ec26e25	0.3797466
252	0x3eacbf05	0.33739486
253	0x3ec3a586	0.38212222
254	0x3f1bf18a	0.60915434
255	0x3f0ed0d6	0.5578741

bn1.bias f4 [800]
0	0xbea82b5d	-0.32845584
1	0xbe811965	-0.25214687
2	0xbe54ab21	-0.20768405
3	0xbe5ecae4	-0.21757084
4	0xbe6c2415	-0.23060639
5	0xbe41bd2b	-0.18919818
6	0xbe044a36	-0.12918934
7	0xbe5dc811	-0.2165835
8	0xbe8981e7	-0.2685692
9	0xbe7099d5	-0.23496182
10	0xbe17c975	-0.14822944
11	0xbe63d4c8	-0.22249138
12	0xbe0ae40f	-0.1356356
13	0xbe2edb4d	-0.17075844
14	0xbe33dfe1	-0.17565872
15	0xbe769088	-0.24078572
16	0xbeae7ea0	-0.34080982
17	0xbe452244	-0.19251353
18	0xbeafca44	-0.34334004
19	0xbe69e75a	-0.2284216
20	0xbe597aea	-0.21238294
21	0xbdf9ad61	-0.121912725
22	0xbe40b359	-0.18818416
23	0xbe52d805	-0.20590217
24	0xbe8a1bfe	-0.2697448
25	0xbe6329b5	-0.22183879
26	0xbe87defd	-0.26537314
27	0xbe645fec	-0.22302216
28	0xbe39a966	-0.18131027
29	0xbe5af699	-0.21383132
30	0xbe996902	-0.29962927
31	0xbe4fb584	-0.20284086
32	0xbd5df145	-0.05418517
33	0xbea30196	-0.31837147
34	0xbe587d02	-0.21141437
35	0xbe0aef74	-0.13567907
36	0xbe50ba27	-0.20383511
37	0xbe5e40d4	-0.21704417
38	0xbe5f7e3b	-0.21825497
39	0xbe552466	-0.20814666
40	0xbe5a1c7a	-0.21299925
41	0xbe4cbb1c	-0.19993252
42	0xbe8bbe77	-0.2729375
43	0xbe4168fa	-0.18887702
44	0xbe24ffc0	-0.16113186
45	0xbe873506	-0.2640764
46	0xbe80d0d4	-0.25159323
47	0xbe959009	-0.29211453
48	0xbe677b77	-0.22605692
49	0xbe70dc74	-0.23521596
50	0xbe70e024	-0.23523003
51	0xbe7af0c1	-0.24505903
52	0xbdea6e57	-0.11446827
53	0xbe866369	-0.2624772
54	0xbe7ee142	-0.24890617
55	0xbe9c1d0e	-0.30490917
56	0xbe8e74ed	-0.27823582
57	0xbe9149c0	-0.2837658
58	0xbe84a1bc	-0.25904644
59	0xbe6ff504	-0.2343331
60	0xbe2a87ab	-0.16653316
61	0xbe8255cf	-0.25456092
62	0xbe808d82	-0.25107962
63	0xbe115061	-0.14190818
64	0xbe7787c5	-0.24172886
65	0xbe5754fd	-0.21028514
66	0xbe672173	-0.22571354
67	0xbe8cb27a	-0.27479917
68	0xbe7a1423	-0.24421744
69	0xbe726e45	-0.23674877
70	0xbe50afbc	-0.20379537
71	0xbe442a56	-0.19156775
72	0xbe790338	-0.24317634
73	0xbe4e0379	-0.20118512
74	0xbe5ac702	-0.21364978
75	0xbe8786b0	-0.26469946
76	0xbe8d4edb	-0.27599224
77	0xbe6b486d	-0.22976847
78	0xbe6a536a	-0.22883382
79	0xbe73fcd9	-0.23826922
80	0xbe4bd31d	-0.19904752
81	0xbe7af8ad	-0.24508925
82	0xbe7e3132	-0.24823454
83	0xbdfe86f6	-0.124280855
84	0xbea65335	-0.32485357
85	0xbe933365	-0.28750148
86	0xbe5f9ee7	-0.2183796
87	0xbe4a19c8	-0.19736397
88	0xbe70d126	-0.23517284
89	0xbe8352d2	-0.25649124
90	0xbdd7013a	-0.10498281
91	0xbe65d119	-0.22443046
92	0xbe88eaeb	-0.26741728
93	0xbe8c60a4	-0.2741748
94	0xbe36553f	-0.17805956
95	0xbe510067	-0.2041031
96	0xbe4243cb	-0.18971173
97	0xbe63dd95	-0.22252496
98	0xbe42286a	-0.18960729
99	0xbe89ddc3	-0.26927003
100	0xbe50005f	-0.20312642
101	0xbe2a1cae	-0.16612503
102	0xbe1d8e5c	-0.15386337
103	0xbe005df0	-0.12535834
104	0xbe62a8e1	-0.22134735
105	0xbe28dfbb	-0.16491596
106	0xbe592aa9	-0.2120768
107	0xbe8f9345	-0.28042045
108	0xbe53cdec	-0.20684022
109	0xbe01eb35	-0.1268738
110	0xbe534291	-0.20630862
111	0xbe7a3803	-0.2443543
112	0xbe822afd	-0.25423422
113	0xbdfcdf64	-0.12347296
114	0xbe2f73ca	-0.17134014
115	0xbe957058	-0.29187274
116	0xbe73efdd	-0.2382197
117	0xbe3e1f4c	-0.18566626
118	0xbe731e12	-0.2374194
119	0xbe89d74b	-0.26922068
120	0xbe7ed686	-0.24886522
121	0xbe618b8d	-0.2202589
122	0xbe4f1b6b	-0.20225303
123	0xbe7c4531	-0.2463577
124	0xbe920477	-0.2851903
125	0xbe273468	-0.16328585
126	0xbe76456f	-0.24049924
127	0xbe8297de	-0.2550649
128	0xbe7fb8d2	-0.24972847
129	0xbe477237	-0.19477163
130	0xbe7d9b2a	-0.24766222
131	0xbe4126fe	-0.1886253
132	0xbe2ca6b7	-0.16860472
133	0xbe4eef1c	-0.202084
134	0xbe9fd670	-0.3121829
135	0xbe5dc519	-0.21657218
136	0xbe4e992f	-0.20175622
137	0xbe6014e4	-0.21882969
138	0xbe539c70	-0.20665145
139	0xbe96fb2e	-0.2948851
140	0xbe3b8f62	-0.18316415
141	0xbe819ae7	-0.25313494
142	0xbe720d8c	-0.2363798
143	0xbdf1e62d	-0.11811481
144	0xbe2f3ccb	-0.17113034
145	0xbe85d371	-0.2613788
146	0xbe5f538e	-0.21809217
147	0xbe909909	-0.28241757
148	0xbe64afd5	-0.223327
149	0xbe62c7f0	-0.22146583
150	0xbe8df4d2	-0.27725846
151	0xbe5e8016	-0.21728548
152	0xbe643be5	-0.22288473
153	0xbe4d96fd	-0.20077129
154	0xbe3fbe3b	-0.18724911
155	0xbe252cbb	-0.16130345
156	0xbe81349e	-0.25235456
157	0xbe64f910	-0.22360635
158	0xbe7c50ac	-0.24640149
159	0xbe8a2fab	-0.26989493
160	0xbe70d86a	-0.23520055
161	0xbe35b48e	-0.17744657
162	0xbe6749af	-0.22586702
163	0xbe52272e	-0.20522758
164	0xbe8f56da	-0.2799595
165	0xbe409eae	-0.18810531
166	0xbe3a4cef	-0.1819341
167	0xbe986c87	-0.297703
168	0xbe7556a2	-0.23958829
169	0xbe294fa9	-0.16534294
170	0xbe49c486	-0.19703874
171	0xbe874786	-0.26421756
172	0xbe301d0d	-0.17198582
173	0xbe23bcf9	-0.15990056
174	0xbe8ac99e	-0.27106947
175	0xbe56d5ef	-0.20980047
176	0xbe8916b6	-0.2677514
177	0xbe1f7484	-0.15571791
178	0xbe8acaa9	-0.27107742
179	0xbe7932a2	-0.24335721
180	0xbe759eba	-0.2398633
181	0xbe811405	-0.25210586
182	0xbe546a5b	-0.20743696
183	0xbe7f43a3	-0.24928145
184	0xbe8152db	-0.25258526
185	0xbe8d0e7b	-0.2755011
186	0xbe93ce80	-0.28868484
187	0xbe896080	-0.26831436
188	0xbdcae89f	-0.0990765
189	0xbe78a89c	-0.2428307
190	0xbe63b45d	-0.22236772
191	0xbe4019a6	-0.18759784
192	0xbe5bfe58	-0.21483743
193	0xbe800efb	-0.2501143
194	0xbe2510b7	-0.16119657
195	0xbe6d8145	-0.23193844
196	0xbe9391e6	-0.2882225
197	0xbe835e09	-0.2565768
198	0xbe388235	-0.1801842
199	0xbe8a0a19	-0.2696083
200	0xbe12925f	-0.14313649
201	0xbe813ac8	-0.2524016
202	0xbe3b6868	-0.18301547
203	0xbe622370	-0.22083831
204	0xbe6214c3	-0.22078232
205	0xbe520bec	-0.2051236
206	0xbe330427	-0.17482053
207	0xbe69cd1e	-0.22832152
208	0xbe997a62	-0.29976183
209	0xbe370a4c	-0.17875022
210	0xbe68dd35	-0.22740634
211	0xbe73c07d	-0.23803897
212	0xbe6129b9	-0.21988572
213	0xbe600402	-0.21876529
214	0xbe81abc0	-0.25326347
215	0xbe64a850	-0.22329831
216	0xbe6577fb	-0.2240905
217	0xbe8c7679	-0.27434137
218	0xbe57ab62	-0.21061471
219	0xbe807824	-0.2509166
220	0xbe67e58c	-0.22646159
221	0xbe5bbad7	-0.21457992
222	0xbe63d7f0	-0.22250342
223	0xbe5f2ec3	-0.21795182
224	0xbe5361de	-0.20642802
225	0xbe64f12f	-0.22357629
226	0xbe5d6fec	-0.21624726
227	0xbe41da51	-0.18930937
228	0xbe810450	-0.25198603
229	0xbe5d393c	-0.21603864
230	0xbe315eda	-0.17321339
231	0xbe82dcec	-0.25559175
232	0xbe70bd09	-0.23509611
233	0xbe823d32	-0.25437313
234	0xbe95d1b6	-0.2926156
235	0xbe1b2bec	-0.15153474
236	0xbe90e6b0	-0.28301
237	0xbe516d5e	-0.20451877
238	0xbe580294	-0.21094733
239	0xbe75464e	-0.239526
240	0xbe2e448b	-0.17018335
241	0xbe43c283	-0.19117169
242	0xbe32a231	-0.17444684
243	0xbe6ab180	-0.22919273
244	0xbe432238	-0.19056022
245	0xbe9a03d4	-0.30081046
246	0xbe81e98d	-0.25373498
247	0xbe46f27c	-0.19428438
248	0xbe8d7452	-0.27627808
249	0xbe488876	-0.19583306
250	0xbe76065f	-0.24025868
251	0xbea1c433	-0.31595
252	0xbe5ede78	-0.21764553
253	0xbdf53073	-0.119721316
254	0xbe21780e	-0.15768453
255	0xbe94ac7a	-0.2903784

bn1.running_mean f4 [800]
0	0xbe1f0b6e	-0.15531704
1	0xbec086a5	-0.37602726
2	0xbe65d5d5	-0.22444852
3	0x3e9eba43	0.3100148
4	0xbe8c733c	-0.27431667
5	0xbe137648	-0.1440059
6	0xbe714545	-0.2356158
7	0x3e257269	0.16156925
8	0x3e842fb8	0.25817657
9	0x3f2062a5	0.6265052
10	0xbd4db7cd	-0.050224114
11	0xbe2c43d7	-0.16822754
12	0xbb949a1c	-0.004534973
13	0x3ed42079	0.41431025
14	0xbe2db8a7	-0.1696497
15	0xbe421aec	-0.18955582
16	0x3ddfafbe	0.10922192
17	0xbe401299	-0.18757094
18	0xbe480dc5	-0.19536503
19	0xbf00cb0d	-0.5030983
20	0x3e428bc5	0.1899863
21	0x3d37e7d4	0.044898823
22	0xbf1f61fa	-0.62258875
23	0xbb627dd5	-0.0034559865
24	0xbe5d3136	-0.21600804
25	0xbe8bea86	-0.27327365
26	0xbd164644	-0.036688104
27	0x3d802a05	0.062580146
28	0x3da7c476	0.08191769
29	0xbe6fa7cd	-0.23403855
30	0x3da94ba3	0.0826638
31	0xbdc07309	-0.09396941
32	0x3dc084ee	0.09400354
33	0x3ed349a0	0.4126711
34	0xbd96f65f	-0.0737121
35	0xbf37a032	-0.71728814
36	0xbf1a0fb8	-0.60180235
37	0x3d507641	0.050894026
38	0x3d316712	0.043311186
39	0xbf0177ef	-0.5057363
40	0xbe332dc3	-0.17497925
41	0x3b73284a	0.0037102872
42	0x3d87996e	0.06621061
43	0xbe810165	-0.25196376
44	0xbe23e50d	-0.16005345
45	0x3cd2862c	0.025698744
46	0x3e64cf15	0.2234462
47	0xbe4c33e4	-0.1994167
48	0x3de10dc1	0.109889515
49	0x3d403e95	0.046934683
50	0x3db51f2d	0.08843837
51	0xbd95ee3b	-0.073208295
52	0xbef089fd	-0.46980277
53	0xbe0df29f	-0.13862084
54	0x3ed064f7	0.4070203
55	0x3d92e449	0.07172448
56	0xbf02b370	-0.5105505
57	0xbe17c89b	-0.14822619
58	0xbbf3f736	-0.0074452413
59	0x3ebb5711	0.36589864
60	0xbead5e40	-0.3386097
61	0x3dd6da8e	0.10490905
62	0xbefaf419	-0.49014357
63	0xbe7e8afe	-0.24857709
64	0xbd8b51f6	-0.06802742
65	0xbf1292df	-0.5725536
66	0xbeb53234	-0.35389864
67	0x3c90cac0	0.017674804
68	0x3e0128bf	0.126132
69	0x3f05a90b	0.52211064
70	0xbdf640e3	-0.12024095
71	0xbe2f54ac	-0.17122144
72	0x3e9e1094	0.30872023
73	0x3e584111	0.21118571
74	0xbe3d6965	-0.18497236
75	0x3e626f61	0.221128
76	0x3eb17b16	0.3466422
77	0xbd2849db	-0.04108606
78	0xbdb284ae	-0.08716713
79	0x3e06cf16	0.13164935
80	0x3dd7a761	0.10529972
81	0x3e12f45f	0.14351033
82	0xbd1a55e6	-0.037679575
83	0xbe15670e	-0.14590093
84	0x3ed2485d	0.41070834
85	0x3e638a10	0.22220635
86	0xbf00c0c1	-0.5029412
87	0x3f02887a	0.50989497
88	0xbdfacd81	-0.12246228
89	0xbede9324	-0.43471634
90	0xbe8e3f1e	-0.2778253
91	0xbe2b7d30	-0.16746974
92	0xbde02869	-0.109452076
93	0xbdb7c4e8	-0.08973104
94	0x3f2c1f93	0.6723568
95	0xbf04e05c	-0.51904845
96	0xbe68ee7d	-0.22747226
97	0x3eb95400	0.361969
98	0x3d81dbac	0.06340727
99	0x3df431a9	0.119235344
100	0xbf15babd	-0.58488065
101	0x3edbc4f6	0.42923707
102	0xbefd517d	-0.49476233
103	0x3e548d76	0.20757088
104	0xbda195a8	-0.07889873
105	0xbdb749fc	-0.08949658
106	0xbdb12252	-0.08649124
107	0x3e97e6b3	0.29668197
108	0x3d72c31b	0.0592681
109	0xbd0749ce	-0.03302937
110	0xbe503bcc	-0.2033531
111	0x3e8beb5b	0.27328
112	0x3da20b0d	0.07912264
113	0xbe8531d8	-0.2601459
114	0xbd9dfeef	-0.0771464
115	0xbe679cb3	-0.2261837
116	0xbe8c7658	-0.2743404
117	0xbf147989	-0.5799795
118	0xbce6961b	-0.028147748
119	0xbeea02c2	-0.4570523
120	0x3f21e739	0.6324344
121	0xbda42e7e	-0.0801668
122	0x3dc99210	0.09842312
123	0xbde7249c	-0.112862796
124	0x3e942b8c	0.28939474
125	0xbe454beb	-0.19267242
126	0x3e910c9b	0.2832993
127	0x3e907a1e	0.28218168
128	0xbec74324	-0.38918412
129	0x3d5799d8	0.05263695
130	0x3e369614	0.17830688
131	0x3e581554	0.21101886
132	0xbee8d3d4	-0.45474112
133	0xbe4e9bb7	-0.20176588
134	0x3e4023c7	0.18763648
135	0x3ecff15c	0.4061383
136	0x3e8b5d0c	0.27219427
137	0x3d49937c	0.049212918
138	0xbe133cad	-0.14378615
139	0x3ccb2605	0.024798403
140	0xbddd126e	-0.10794531
141	0xbf074dca	-0.5285307
142	0xbc541bc8	-0.012946077
143	0xbe3c2e38	-0.18377006
144	0x3e19daa5	0.15024813
145	0xbe718ccc	-0.23588866
146	0x3e8cd88f	0.2750897
147	0x3e44b05e	0.19207904
148	0xbe8b1b30	-0.2716918
149	0xbe9559e8	-0.29170156
150	0xbdbbe5d3	-0.09174695
151	0x3e986924	0.29767716
152	0x3e61aa51	0.22037627
153	0x3e9009df	0.2813253
154	0x3e6e35d4	0.23262721
155	0x3e0e9b54	0.1392644
156	0xbe046f3b	-0.12933056
157	0x3eaa2a92	0.33235604
158	0xbe084580	-0.13307762
159	0xbee43474	-0.4457127
160	0xbe737297	-0.23774181
161	0x3db370c9	0.087617464
162	0xbea2a15b	-0.3176373
163	0xbee37dae	-0.44431823
164	0xbf1f0314	-0.6211407
165	0xbe298874	-0.16555959
166	0x3d59a325	0.053134102
167	0xbe3b55ad	-0.18294401
168	0x3daaef54	0.083464295
169	0xbe273f47	-0.16332732
170	0xbecae095	-0.39624467
171	0xbec644fc	-0.38724506
172	0x3e861fec	0.2619623
173	0x3da259d8	0.079272926
174	0x3d6ec438	0.058292598
175	0xbe5611d2	-0.20905235
176	0x3e5e385a	0.21701184
177	0x3c1475df	0.009061306
178	0xbf2d87d6	-0.67785394
179	0x3da78069	0.08178789
180	0xbf217e9f	-0.63083833
181	0x3d197ab1	0.037470523
182	0xbeeecf76	-0.46642655
183	0xbe87d826	-0.26532096
184	0x3d3b58f4	0.04573913
185	0x3de6a678	0.1126222
186	0x3e27757c	0.1635341
187	0xbdc0fbd7	-0.09423035
188	0x3ee155ff	0.44010922
189	0xbde12223	-0.10992839
190	0xbe8adda5	-0.27122226
191	0xbf1b5fac	-0.6069286
192	0x3db4090e	0.087907895
193	0x3e939066	0.28821105
194	0xbea192ba	-0.31557256
195	0xbe766d04	-0.24065024
196	0xbd192acc	-0.03739433
197	0xbe1ff5b8	-0.15621078
198	0x3e0df19e	0.13861701
199	0x3eb0710a	0.34461242
200	0xbf0272ba	-0.5095631
201	0xbeff88fd	-0.499092
202	0x3e5aba14	0.21360046
203	0xbe342b58	-0.1759466
204	0xbef2ed4d	-0.4744667
205	0xbdd7f02c	-0.10543856
206	0xbe3a6d4a	-0.18205753
207	0xbc4ac2b5	-0.012375523
208	0x3df6197a	0.12016578
209	0xbc8ab09a	-0.016929913
210	0xbe1777d8	-0.1479181
211	0xbe4b5aae	-0.1985881
212	0x3c0c8f19	0.008579039
213	0xbe193d73	-0.14964847
214	0xbae61208	-0.0017552981
215	0xbeb3a11e	-0.3508386
216	0x3dc71198	0.097201526
217	0xbe41377c	-0.18868822
218	0xbebae0f6	-0.36499757
219	0xbe0f5acd	-0.13999481
220	0x3eab6d9d	0.33482066
221	0x3d8fd8f6	0.07023804
222	0xbe752550	-0.23940015
223	0x3d65fdda	0.056150295
224	0xbe3970dc	-0.18109459
225	0x3e7f192b	0.24911945
226	0x3d983fe9	0.07434065
227	0xbb0b7c6a	-0.0021283873
228	0xbf083db5	-0.5321916
229	0xbea64b5d	-0.32479373
230	0xbec873b3	-0.39150771
231	0xbe2fee7a	-0.17180815
232	0x3d22a340	0.03970647
233	0xbed888d1	-0.42291883
234	0x3eb172f5	0.34658018
235	0x3e391978	0.18076122
236	0x3e4398d2	0.19101265
237	0xbeb10bfa	-0.3457945
238	0xbdf351c7	-0.11880832
239	0x3df6e0df	0.120546095
240	0xbe4db284	-0.2008763
241	0x3e888a05	0.266678
242	0xbe8cd2ba	-0.27504522
243	0xbed4a88d	-0.41534844
244	0xbeb205a6	-0.34769934
245	0x3d6e2450	0.0581401
246	0x3d594f3d	0.053054083
247	0xbf04909f	-0.51783174
248	0x3c100cff	0.008792161
249	0x3d3a2a33	0.0454504
250	0xbe68915e	-0.22711703
251	0x3e92071f	0.28521058
252	0xbcee77a0	-0.029109776
253	0xbdc9d633	-0.098553084
254	0xbee43f58	-0.44579577
255	0xbefbee29	-0.4920514

bn1.running_var f4 [800]
0	0x3d4d894a	0.050179757
1	0x3d45bd3a	0.048276164
2	0x3d48d072	0.049026914
3	0x3d61f34e	0.055163674
4	0x3d311853	0.043236088
5	0x3d5754aa	0.052570976
6	0x3db1de37	0.08684962
7	0x3d4cbe78	0.049986333
8	0x3d23ce2e	0.03999155
9	0x3d42b156	0.047532402
10	0x3d96c4a0	0.07361722
11	0x3d287ddc	0.041135654
12	0x3d81cc5e	0.06337808
13	0x3d233285	0.0398431
14	0x3d7b2c95	0.061321814
15	0x3d72aa56	0.059244476
16	0x3d3d2aa7	0.046183255
17	0x3c8998f4	0.016796567
18	0x3d90a80d	0.07063303
19	0x3d8bc45d	0.06824563
20	0x3d5c0dd0	0.05372411
21	0x3d8663c0	0.065619946
22	0x3d3dd6fb	0.0463476
23	0x3cc8131d	0.024423176
24	0x3d44cd5f	0.04804742
25	0x3d52b6ad	0.051443744
26	0x3d132c64	0.035931006
27	0x3cfbff8d	0.030761505
28	0x3d8436e8	0.06455785
29	0x3d0062a6	0.03134408
30	0x3dba2f88	0.09091097
31	0x3d796a96	0.060892664
32	0x3d9d762b	0.076885544
33	0x3dfbb835	0.12290994
34	0x3ce8ec41	0.028432967
35	0x3d85aed9	0.0652749
36	0x3d3f5b59	0.046717975
37	0x3d0bb886	0.034111522
38	0x3d2657c6	0.04061105
39	0x3d38cef2	0.045119233
40	0x3d4d3a44	0.050104395
41	0x3d477266	0.048693083
42	0x3d722059	0.05911288
43	0x3cdab225	0.026696274
44	0x3d5eb647	0.054373052
45	0x3d462f5b	0.048385005
46	0x3d270d2c	0.040784046
47	0x3d8518e0	0.06498885
48	0x3d4815d5	0.048848946
49	0x3d3a4894	0.045479372
50	0x3d1b083b	0.037849646
51	0x3d2b1dc1	0.041776422
52	0x3d36d73f	0.04463887
53	0x3d628814	0.055305555
54	0x3d14e4ef	0.03635114
55	0x3da98499	0.08277244
56	0x3d6fbd02	0.05852986
57	0x3d875988	0.066088736
58	0x3de45f06	0.11150937
59	0x3d7f7f99	0.062377546
60	0x3d84d785	0.064864196
61	0x3d6cb8d9	0.057793472
62	0x3d23b041	0.03996301
63	0x3d47e6b8	0.048804015
64	0x3d82782a	0.06370576
65	0x3d3a821a	0.04553423
66	0x3d4d174e	0.050071053
67	0x3d86851a	0.06568356
68	0x3d70730b	0.058703464
69	0x3d640a0c	0.055673644
70	0x3d1b59fa	0.037927605
71	0x3c4440c3	0.011978331
72	0x3d2b6e8c	0.041853473
73	0x3d351c56	0.044216476
74	0x3d73d9c7	0.05953386
75	0x3d2a0cf1	0.041516248
76	0x3d862c9b	0.065514766
77	0x3d4ccaf9	0.049998257
78	0x3d9557b2	0.07292117
79	0x3d9962b4	0.07489529
80	0x3d43796e	0.047723226
81	0x3cee51d9	0.029091762
82	0x3d4c9b1d	0.049952615
83	0x3d55a366	0.052157782
84	0x3d80620b	0.062687
85	0x3d5d88cd	0.05408554
86	0x3d324851	0.043525998
87	0x3c9999dd	0.018750126
88	0x3d3f37ef	0.0466842
89	0x3d74cd86	0.059766315
90	0x3d64f9e2	0.05590237
91	0x3d907e46	0.07055335
92	0x3d1a871d	0.03772651
93	0x3d162adc	0.036661968
94	0x3d943921	0.07237459
95	0x3d29676a	0.04135839
96	0x3d269bc8	0.04067591
97	0x3d17799d	0.036981214
98	0x3d689f59	0.05679259
99	0x3d095bea	0.03353492
100	0x3d2b8f7b	0.04188488
101	0x3d96bed7	0.073606186
102	0x3d58176a	0.052756704
103	0x3d71c4ee	0.059025697
104	0x3d298d0d	0.041394282
105	0x3ca06630	0.019579977
106	0x3d453995	0.048150618
107	0x3d5b2d41	0.053509954
108	0x3d0d9f02	0.03457547
109	0x3d8ed752	0.06974663
110	0x3d3f57df	0.04671466
111	0x3d3a9bce	0.045558743
112	0x3d8b8b8e	0.06813727
113	0x3d993a19	0.074817844
114	0x3d6101e1	0.054933432
115	0x3d802404	0.062568694
116	0x3ce13443	0.02749074
117	0x3db1103e	0.08645676
118	0x3d37fc2e	0.04491823
119	0x3d27fba8	0.041011482
120	0x3d43abd7	0.0477713
121	0x3c8e5368	0.017373756
122	0x3d485e5f	0.048918124
123	0x3d65f8ce	0.05614548
124	0x3d619aa7	0.05507913
125	0x3d5e8cd1	0.05433351
126	0x3d518b1c	0.051158056
127	0x3d6cff26	0.057860516
128	0x3d6761bd	0.056489695
129	0x3d8aca12	0.06776823
130	0x3d115d65	0.03548946
131	0x3d620afb	0.055186253
132	0x3d804eba	0.06265016
133	0x3cb24e0a	0.021765728
134	0x3d6dba5d	0.058039058
135	0x3d751b03	0.059840214
136	0x3d3b7e88	0.045774966
137	0x3d4a4222	0.049379475
138	0x3d485ee0	0.048918605
139	0x3d3a4531	0.045476142
140	0x3d36f3ba	0.04466603
141	0x3d8f3547	0.06992584
142	0x3cfcc842	0.03085721
143	0x3d6600ab	0.05615298
144	0x3d66bdf5	0.0563335
145	0x3db1d09e	0.08682369
146	0x3d0ff048	0.03514126
147	0x3d0ecc0b	0.03486256
148	0x3d3fb2a9	0.046801243
149	0x3d72aba2	0.059245713
150	0x3d888129	0.0666526
151	0x3d4044b6	0.046940528
152	0x3d59a03b	0.053131323
153	0x3d4e4016	0.050354086
154	0x3d828965	0.06373862
155	0x3be7a5d0	0.007069327
156	0x3d3e2bc9	0.046428476
157	0x3d6d3b69	0.057917986
158	0x3cf41c88	0.029798761
159	0x3d18baa8	0.037287384
160	0x3d2d58b8	0.042320937
161	0x3d4c34f2	0.04985518
162	0x3d1a7ec5	0.037718553
163	0x3d9737ef	0.07383715
164	0x3d59b238	0.05314848
165	0x3d4ad481	0.049519066
166	0x3d6df824	0.058097973
167	0x3d52885d	0.051399577
168	0x3d17c992	0.037057467
169	0x3c9ad841	0.018901946
170	0x3d6a1229	0.057146225
171	0x3d78449c	0.060612306
172	0x3d37a0d3	0.04483111
173	0x3d8c42a4	0.06848648
174	0x3d89a106	0.06720166
175	0x3d6d4ab8	0.057932585
176	0x3cc50ae7	0.02405305
177	0x3da58160	0.08081317
178	0x3d66b832	0.056328006
179	0x3d3b4892	0.045723505
180	0x3d730b7f	0.059337135
181	0x3d190378	0.037356824
182	0x3d06c337	0.032901015
183	0x3d4234fa	0.047413804
184	0x3d889c8c	0.06670484
185	0x3cfc06eb	0.030765017
186	0x3cdc0c01	0.026861193
187	0x3d83ff17	0.06445139
188	0x3d47d893	0.048790526
189	0x3d8ce7a0	0.068801165
190	0x3d903d3e	0.07042931
191	0x3d322e30	0.04350108
192	0x3d33ef64	0.043929473
193	0x3d6f36a3	0.058401715
194	0x3ce2b978	0.027676329
195	0x3d8a0477	0.06739133
196	0x3cf572d9	0.02996199
197	0x3d222dcc	0.039594457
198	0x3d41d3ad	0.04732101
199	0x3d02e58d	0.031957198
200	0x3d7b9e58	0.061430305
201	0x3d247190	0.040147364
202	0x3cd914bb	0.026499143
203	0x3d392726	0.04520335
204	0x3d0a46d0	0.03375894
205	0x3d19bbcb	0.03753261
206	0x3cf90aa7	0.030400587
207	0x3d667f9e	0.05627405
208	0x3d4ccdd0	0.050000966
209	0x3d3f8762	0.04675997
210	0x3ce440f9	0.027863013
211	0x3d1be601	0.038061146
212	0x3d1fc9b6	0.039010726
213	0x3d237a65	0.039911646
214	0x3d276897	0.04087123
215	0x3d81342b	0.063087784
216	0x3d57ad98	0.052655786
217	0x3d623139	0.055222724
218	0x3cfaf5c3	0.030634766
219	0x3d14b9f0	0.036310136
220	0x3d0f49ab	0.034982365
221	0x3d3ca7bf	0.046058413
222	0x3d1662b7	0.036715236
223	0x3d20cf26	0.039260052
224	0x3d567fb2	0.052367873
225	0x3d17834f	0.03699046
226	0x3d41aac8	0.04728201
227	0x3cfa0359	0.030519174
228	0x3d566d9f	0.052350637
229	0x3ccc6ea0	0.024955094
230	0x3d9440f4	0.07238951
231	0x3d3269c1	0.043557886
232	0x3d96d823	0.073654436
233	0x3d6b68f2	0.05747313
234	0x3d3a6b8f	0.045512732
235	0x3d19ab38	0.037516803
236	0x3d87866d	0.066174366
237	0x3d215e1e	0.039396398
238	0x3d747663	0.059683215
239	0x3d1c3562	0.038136847
240	0x3d6aeca6	0.05735459
241	0x3d85f9ed	0.0654181
242	0x3d6a8c44	0.057262674
243	0x3d223a63	0.039606463
244	0x3d504853	0.050850224
245	0x3d360a0a	0.044443168
246	0x3d41f77b	0.047355156
247	0x3d3aae42	0.04557634
248	0x3d3f43e6	0.046695612
249	0x3d395ef7	0.04525658
250	0x3ca11b10	0.019666225
251	0x3d16cca2	0.036816247
252	0x3d20a78c	0.039222285
253	0x3d610aba	0.05494187
254	0x3d6ca394	0.057773188
255	0x3d652bb0	0.055949867

fc2.weight f4 [200, 800]
0	0xba87a687	-0.0010349312
1	0xbc4aafc6	-0.012371009
2	0x3c4af9db	0.012388672
3	0x3c8cb3f8	0.01717566
4	0xbd79953e	-0.060933344
5	0xbcb6da4d	-0.02232089
6	0xbd0dcc71	-0.0346188
7	0xbd70c124	-0.058777943
8	0xbac445df	-0.0014974436
9	0xbd6d1607	-0.057882335
10	0xbda274ff	-0.079324715
11	0x3d2006d5	0.039069016
12	0xbd734b68	-0.059398085
13	0x3decda5b	0.115650855
14	0x3ca6aed9	0.020347046
15	0x3d2ac6df	0.041693565
16	0x3ca25bc4	0.019819148
17	0xbca0095f	-0.019535718
18	0xbd3513f3	-0.04420848
19	0xbcfc56a8	-0.03080304
20	0xbd9174f7	-0.071023874
21	0x3d18ec76	0.03733488
22	0xbcb88d84	-0.022528417
23	0x3c96f8de	0.018429216
24	0x3da410f9	0.0801105
25	0x3d7af5af	0.06126946
26	0xbca3a9fa	-0.019978512
27	0x3c805eb2	0.015670154
28	0xbd0537d6	-0.032523952
29	0xba72e7db	-0.00092661165
30	0x3d34dcd1	0.0441559
31	0xbd8d28c7	-0.06892543
32	0x3d0eee81	0.034895424
33	0x3dace4c1	0.08442069
34	0x3c864116	0.016388457
35	0x3d1910c1	0.037369493
36	0xbcfe2e80	-0.031028032
37	0x3d121592	0.035665102
38	0x3d25a36f	0.040439066
39	0xbd9451d0	-0.07242167
40	0x3d24c05d	0.040222514
41	0x3cbd917d	0.023140663
42	0x3d7e2e33	0.062055778
43	0x3c79d656	0.015248856
44	0xbd0711e3	-0.032976042
45	0xbd391180	-0.045182705
46	0xbd5e4a59	-0.054270122
47	0xbc8f98aa	-0.01752885
48	0xbd0ecee3	-0.03486527
49	0x3cdf27de	0.02724069
50	0xbd597674	-0.05309148
51	0xbc6a593d	-0.014303503
52	0xbd5c72f6	-0.053820573
53	0x3cb4b7a6	0.022060227
54	0x3d8911c1	0.066928394
55	0x3cfdf0b9	0.030998575
56	0xbca94345	-0.02066196
57	0x3d9396f0	0.072065234
58	0x3ab58839	0.0013849802
59	0xbad221c4	-0.0016031791
60	0xbd8431de	-0.06454824
61	0x3d1124a8	0.03543535
62	0x3ce14bb8	0.027501926
63	0xbcadf167	-0.021233274
64	0xbc034e1f	-0.008014231
65	0xbd842401	-0.0645218
66	0xbc548388	-0.012970813
67	0xbd84f302	-0.064916626
68	0x3c31b78a	0.010846982
69	0x3b7a3138	0.003817631
70	0xbd27393f	-0.04082608
71	0xbb8c812b	-0.004287859
72	0x3c3fc585	0.011704807
73	0xbc8b57c7	-0.017009629
74	0x3c1d9bf3	0.009619701
75	0xbcf2011a	-0.02954154
76	0x3ce2a2df	0.027665554
77	0x3b15ab92	0.002283786
78	0xbc4ef2a8	-0.012631096
79	0xbd23c92e	-0.03998678
80	0xbcc0bfca	-0.023528952
81	0xbca5c2ab	-0.020234426
82	0xbbf93f7c	-0.007606445
83	0x3d8d1107	0.06888013
84	0x3bb5438b	0.0055317334
85	0xbd911e1b	-0.0708582
86	0xbb94bf98	-0.0045394413
87	0x3cd57bda	0.026060034
88	0x3d86e1b6	0.0658602
89	0xbdc672fc	-0.096899
90	0x3c102dc5	0.008799975
91	0x3d85dd25	0.065363206
92	0xbc1238f8	-0.008924715
93	0xbcfec082	-0.031097654
94	0x3c2c527a	0.010517711
95	0xbd03fa88	-0.032221347
96	0xbb80fef2	-0.003936642
97	0x3d4ca727	0.049964096
98	0xbd24aded	-0.04020493
99	0xbcf86aba	-0.030324329
100	0xbc91fea7	-0.017821623
101	0x3c0abed4	0.0084683485
102	0xbc88d549	-0.016703265
103	0x3d954c5b	0.07289954
104	0x3d15978b	0.036521476
105	0xbc141469	-0.009038069
106	0x3d0536b6	0.03252288
107	0xbd881ce4	-0.066461354
108	0xbcd4bf8e	-0.025970247
109	0x3ce383ad	0.027772749
110	0x3ce65e29	0.028121071
111	0x3d98f6da	0.07468958
112	0xbcf0ac3b	-0.029379
113	0xbddd3780	-0.108016014
114	0xbd44ebaf	-0.048076328
115	0xbbd58525	-0.006516116
116	0x3ab008ec	0.0013430393
117	0xbd773bd9	-0.06035981
118	0xbc1a2a27	-0.009409464
119	0xbd3ad5cf	-0.04561406
120	0xbc777e0a	-0.015105734
121	0x3b09233b	0.002092554
122	0xbced7bf9	-0.028989779
123	0x3d0064c3	0.031346094
124	0x3da2579e	0.07926868
125	0x3d4f171d	0.050559152
126	0x3d84984b	0.0647436
127	0x3b7d4a19	0.0038648902
128	0xbdecd167	-0.11563378
129	0xbc0a4276	-0.008438697
130	0x3bcf0c08	0.006318573
131	0x3d151550	0.03639728
132	0x3d1390cc	0.03602676
133	0xbba91afe	-0.0051606884
134	0x3cd1e4f7	0.025621874
135	0xbcf5fa44	-0.030026563
136	0x3cf7fd63	0.030272191
137	0xbaedb85e	-0.0018136611
138	0xbd39bd8d	-0.045346785
139	0x3ca94d21	0.02066666
140	0x3d9a72c1	0.07541419
141	0xbd0599ff	-0.032617565
142	0xbd6286bc	-0.055304274
143	0xbd75c633	-0.06000347
144	0xbc6cc00b	-0.0144500835
145	0xbc918bc2	-0.017766837
146	0x3ba0b17c	0.0049039703
147	0x3d7484f4	0.059697106
148	0x3c94ef77	0.018180592
149	0xbab966fb	-0.001414507
150	0xbd9a2f4c	-0.075285524
151	0x3bb57766	0.005537915
152	0x3ccdf8dd	0.025143081
153	0x3c026fa2	0.007961186
154	0xbd6b2c80	-0.057415485
155	0xbbdf887f	-0.0068216915
156	0x3cbd66fc	0.023120396
157	0x3cdb4e41	0.026770713
158	0xbcb66b8b	-0.022268077
159	0x3d57afec	0.052658007
160	0xbdaa1f7e	-0.08306788
161	0xbd1ac621	-0.037786607
162	0xbbeb6dd7	-0.007184725
163	0x3c0e4701	0.008683921
164	0xbcc33ae5	-0.023831794
165	0x3af9c478	0.0019055745
166	0xbca268c5	-0.019825349
167	0xbdc1f22a	-0.09470017
168	0xbd6f7031	-0.058456603
169	0x3cbcfc6e	0.023069587
170	0x3cbfc972	0.023411486
171	0xbd5c4e2d	-0.05378549
172	0x3ca964de	0.02067798
173	0xbd9ac41f	-0.075569384
174	0x3cc0b37e	0.023523089
175	0xbcb45ad9	-0.022015976
176	0xbbd5e669	-0.006527711
177	0x3d0e91b6	0.03480693
178	0x3cd90339	0.026490794
179	0x3d1ea241	0.038728956
180	0xbd4fcb67	-0.05073109
181	0xbc888c91	-0.01666859
182	0xbd5ad2ef	-0.05342382
183	0x3cbdae22	0.023154322
184	0xbcd65c11	-0.026166948
185	0xbd2710d8	-0.040787548
186	0xbcffc850	-0.031223446
187	0xbce8695b	-0.02837055
188	0x3d47455d	0.048650134
189	0xbce2aa68	-0.027669147
190	0x3d0ab36a	0.03386251
191	0xbccd9039	-0.025093185
192	0x3d26aa8b	0.040689986
193	0xbdb917af	-0.090377204
194	0xb9db4387	-0.00041821247
195	0xbd2891e4	-0.041154757
196	0xbc27aaac	-0.010233562
197	0xbb74c464	-0.0037348503
198	0x3da6af30	0.08138883
199	0xbb4c69a6	-0.00311909
200	0xbc0327b4	-0.008005071
201	0x3c74c67a	0.014939899
202	0x3d4beb22	0.049784787
203	0x3d06a06d	0.032867838
204	0xbd65b8fc	-0.056084618
205	0xbba89614	-0.005144844
206	0xbbfb27c5	-0.007664653
207	0xbd92e3b2	-0.07172336
208	0xbc3d605a	-0.0115586165
209	0xbd158771	-0.03650612
210	0x3cff9265	0.031197736
211	0xbd291a97	-0.041285124
212	0x3c96a1a3	0.018387621
213	0xbd835fd5	-0.06414763
214	0xbcfe1c1a	-0.03101926
215	0xbd95aa5d	-0.07307885
216	0x3cde4e50	0.027136952
217	0x3c26c51d	0.010178831
218	0xbc991114	-0.018684901
219	0x3cc4e338	0.024034128
220	0xbbb04646	-0.005379471
221	0x3b1f5e55	0.00243177
222	0xbda689c1	-0.08131743
223	0x3c853d6a	0.016264636
224	0xbd5a960a	-0.053365745
225	0x3d20a345	0.039218206
226	0x3cd0a32a	0.025468428
227	0xbca705ed	-0.020388568
228	0x3c938be3	0.01801104
229	0xba08d9b0	-0.0005220426
230	0x3cfa2845	0.03053678
231	0xbbf74624	-0.007546203
232	0xbbe2ce1e	-0.0069215437
233	0xbdc09f9b	-0.09405442
234	0x3ced55b1	0.028971525
235	0x3cb1dd55	0.021711985
236	0x3ba221cf	0.004947878
237	0x3c0ed766	0.008718347
238	0xbb5dc9cf	-0.003384221
239	0x3d0d1f9e	0.03445398
240	0xbc7bc1b4	-0.015366007
241	0xbd8e1d04	-0.06939128
242	0x3badb686	0.0053012995
243	0xbd17f52b	-0.037099045
244	0x3c9bde42	0.01902688
245	0x3dc28553	0.09498086
246	0x3d530aa9	0.05152384
247	0x3ca761e2	0.020432416
248	0xbd86a00c	-0.06573495
249	0xbc8b42ff	-0.01699972
250	0xbcdaa71a	-0.026691008
251	0xbc5e6878	-0.013574712
252	0xbceae2f2	-0.02867267
253	0x3d0cf8bd	0.034416903
254	0x3d517d00	0.0511446
255	0xbc9ef809	-0.019405382
